DATA/final_output/mortality/MyVariableRNN.pth (torch_old, 154038 bytes, 8 tensors)

weight f4 [32, 1043]
0.16054966 0.16869384 0.12082208 -0.06447173 -0.008823403 -0.014903781 -0.023071477 0.0002987569
0.010071971 -0.011070397 0.02192598 0.056735404 -0.06176849 -0.03356488 -0.022494288 -0.0010892241
0.007890624 -0.013209947 0.043690003 -0.1254712 0.03174441 -0.034543656 -0.03249048 0.10572648
0.018222027 0.12891689 0.038479082 -0.092135064 -0.11383817 0.06582617 0.121547624 0.13295664
-0.32661688 0.024354706 -0.011431485 0.0035680674 -0.04096902 0.17095168 0.022037031 0.003834934
-0.0032849368 0.05726438 0.024439598 -0.048189636 -0.02896672 0.07266795 -0.0119664045 0.015210967
0.007107809 0.015942678 0.046625175 0.05002812 0.0911836 0.03206211 0.065498866 -0.029997114
0.012271842 -0.055705987 -0.16284439 -0.093400374 0.041863505 -0.058811642 0.088195525 -0.077340454
0.06569948 0.101816446 0.0198635 -0.0981253 0.030003635 0.060387373 -0.0039888206 0.11889542
0.041497182 0.08295294 0.002649721 0.10225612 -0.012394109 -0.11307756 0.045321632 0.011723269
-0.09265288 0.005723301 -0.07005373 0.024002701 -0.008133883 0.078429885 0.0014049892 0.005323146
0.00075976603 -0.0115876235 0.09724379 -0.18954863 0.046779223 -0.07105888 -0.031723473 -0.026582634
0.09806076 -0.008830773 -0.19799684 0.124052726 0.054651804 0.0255587 0.022919135 -0.016491512
0.0038879658 0.10073638 0.010747212 -0.021653729 0.01597273 -0.078822024 0.0078046396 -0.04272169
-0.040707506 0.06965016 -0.023595605 0.08037512 0.058720157 -0.12996784 0.017454654 -0.08818049
-0.031374592 0.032461375 -0.011368659 0.07424213 -0.07423521 0.0874801 -0.04125877 -0.046666063
-0.007971576 -0.10540856 0.009744443 0.022764089 0.0096790865 0.045036543 0.12832648 0.069832526
-0.029304754 0.012582034 0.042597372 0.08972747 0.13476393 0.08972783 0.06229302 -0.02209811
0.032470703 -0.052966096 -0.01025876 0.08132778 0.014156435 0.09622474 0.0038087382 0.024633532
-0.12878862 0.08538436 -0.10726164 0.042089812 0.013930825 0.08972295 0.056338463 0.051703483
-0.0043986943 0.07904057 0.03534295 0.006739311 0.2069335 0.06280102 -0.19943611 -0.06070479
-0.055069637 -0.040465076 0.19232531 -0.028116161 0.059441242 -0.040298235 0.024399368 0.11725711
0.07306989 0.03277114 -0.006617314 -0.04343523 -0.15407178 -0.0710666 -0.11874288 0.06907736
0.0005683191 0.12652136 0.09108827 -0.017564496 0.095272906 0.030835804 0.098487444 -0.042139005
0.071401685 0.05488765 0.06835078 0.00028382437 -0.02241709 0.002093023 -0.030222034 0.08880045
0.0148543175 -0.034037955 -0.049283292 -0.016225798 -0.059875607 0.040417388 -0.030533912 0.10006185
0.097714245 -0.090996034 0.012884603 0.056683328 0.21167359 0.03432976 0.039777346 0.0011287536
0.10907903 -0.0092103155 0.025311703 0.015545344 -0.015609192 0.04313181 0.10982444 -0.013102432
0.03508352 0.07717092 -0.18769352 0.017204069 -0.24979419 -0.2797254 0.21420828 0.0111622475
-0.0024208643 0.0748261 -0.0492134 0.033830684 0.07516737 0.027985616 0.100489065 -0.101420484
0.09143434 0.086159654 -0.035471234 -0.0008517687 0.19194917 -0.042556617 -0.040075798 0.04023506
-0.0039963173 0.03508069 0.036851425 0.01735604 0.0673015 0.033234965 -0.013831356 0.03757753
00000000: 2167 243e 14be 2c3e 9171 f73d c109 84bd
00000010: 0990 10bc fd2e 74bc 6500 bdbc 79a2 9c39
00000020: e904 253c 9c60 35bc 1d9e b33c 6263 683d
00000030: f500 7dbd 547b 09bd f145 b8bc 4cc4 8eba
00000040: ad47 013c 896e 58bc 4af4 323d 867b 00be
00000050: 6d06 023d a67d 0dbd bd14 05bd 2087 d83d
00000060: 5c46 953c ca02 043e 3e9c 1d3d 4fb1 bcbd
00000070: fd23 e9bd dfcf 863d f6ed f83d c925 083e
00000080: 543a a7be 8583 c73c 204b 3bbc 3dd6 693b
00000090: 22cf 27bd f50d 2f3e 0187 b43c 8453 7b3b
000000a0: 1848 57bb 0e8e 6a3d 8d35 c83c 7f62 45bd
000000b0: 9d4b edbc efd2 943d bd0e 44bc 6b37 793c
000000c0: a0e8 e83b 389a 823c 0afa 3e3d 49ea 4c3d
000000d0: 78be ba3d 8f53 033d 4524 863d 82bc f5bc
000000e0: d60f 493c f62b 64bd aec0 26be b248 bfbd
000000f0: 1179 2b3d 7ae4 70bd db9f b43d ac64 9ebd
00000100: 738d 863d 2485 d03d c7b8 a23c ebf5 c8bd
00000110: 2fca f53c c058 773d a7b4 82bb 717f f33d
00000120: f3f8 293d 3be3 a93d f1a6 2d3b a86b d13d
00000130: a910 4bbc 3595 e7bd 2da3 393d f412 403c
00000140: cbc0 bdbd 878a bb3b 5478 8fbd 50a1 c43c
00000150: fa43 05bc d99f a03d 9d27 b83a c96d ae3b
00000160: 092b 473a 04da 3dbc c127 c73d 0919 42be
00000170: 929b 3f3d 5187 91bd 79f0 01bd d3c3 d9bc
00000180: 14d4 c83d f2ae 10bc afbf 4abe 5b0f fe3d
00000190: 92da 5f3d 7b60 d13c e9c0 bb3c 3519 87bc
000001a0: 3ecd 7e3b e04e ce3d 1315 303c 2963 b1bc
000001b0: 3ed9 823c 716d a1bd 10be ff3b f0fc 2ebd
000001c0: eabc 26bd bea4 8e3d 924b c1bc b69b a43d
000001d0: 8c84 703d 4a16 05be 10fd 8e3c f997 b4bd
000001e0: a582 00bd 38f6 043d 9d43 3abc 420c 983d
000001f0: a108 98bd c428 b33d f5fe 28bd ea24 3fbd
00000200: 379b 02bc 71e0 d7bd 28a7 1f3c c17b ba3c
00000210: 0895 1e3c 3d78 383d 0468 033e 5b04 8f3d
00000220: 8610 f0bc e024 4e3c 957a 2e3d 09c3 b73d
00000230: 8eff 093e 39c3 b73d f726 7f3d 1807 b5bc
00000240: 0000 053d faf2 58bd 5c14 28bc 2e8f a63d
00000250: 64f0 673c 7a11 c53d 069c 793b 43cc c93c
00000260: 2ae1 03be ffdd ae3d feab dbbd 5e66 2c3d
00000270: 1d3e 643c aac0 b73d 29c3 663d 08c7 533d
00000280: ec22 90bb 06e0 a13d c5c3 103d 70d5 dc3b
00000290: 60e6 533e d29d 803d fb38 4cbe 96a5 78bd
000002a0: b390 61bd b5be 25bd edf0 443e dd53 e6bc
000002b0: a978 733d c30f 25bd 2fe1 c73c 7f24 f03d
000002c0: aba5 953d 083b 063d 0ed6 d8bb 24e9 31bd
000002d0: fec4 1dbe 5e8b 91bd 782f f3bd 6e78 8d3d
000002e0: 40fb 143a d18e 013e 7d8c ba3d 6be3 8fbc
000002f0: 711e c33d 5e9b fc3c c9b3 c93d f399 2cbd
00000300: 0c3b 923d dfd1 603d 7efb 8b3d 43ce 9439
00000310: 0ca4 b7bc 192b 093b 3394 f7bc 03dd b53d
00000320: 865f 733c 626b 0bbd 47dd 49bd f7eb 84bc
00000330: 2040 75bd b48c 253d 4122 fabc 3aed cc3d
00000340: 681e c83d 215c babd f119 533c c72c 683d
00000350: f6c0 583e 5d9d 0c3d 92ed 223d b0f2 933a
00000360: d464 df3d dde6 16bc 7d5a cf3c e6b1 7e3c
00000370: b2bd 7fbc fbaa 303d a3eb e03d 95ab 56bc
00000380: bdb3 0f3d ca0b 9e3d bb32 40be 8cef 8c3c
00000390: 0cca 7fbe 2b38 8fbe 6a59 5b3e dce1 363c
000003a0: 5da7 1ebb 6d3e 993d fd93 49bd 0b92 0a3d
000003b0: 5af1 993d 1742 e53c 36cd cd3d 8bb5 cfbd
000003c0: ed41 bb3d 7974 b03d 494a 11bd 3b49 5fba
000003d0: 538e 443e d94f 2ebd 8526 24bd 85cd 243d
000003e0: 8af3 82bb c5b0 0f3d 85f1 163d 412e 8e3c
000003f0: 5ed5 893d 6321 083d e99c 62bc e5ea 193d

bias f4 [32]
0.110851265 -0.22169097 -0.22475126 -0.18230015 -0.31174594 0.16840708 -0.2509439 0.21535127
0.18032596 0.15538943 0.24028459 -0.19616772 -0.230342 -0.20044494 -0.19433212 0.18092848
-0.18825221 -0.20977958 0.17932025 0.17269976 0.1689901 -0.16921555 0.18842253 0.17955372
-0.20950389 0.24479389 -0.22708844 0.25772855 0.19558382 -0.12883149 0.17272906 -0.2338395
00000000: fd05 e33d f502 63be 3225 66be e4ac 3abe
00000010: 2a9d 9fbe e872 2c3e b87b 80be 0b85 5c3e
00000020: 5ea7 383e 681e 1f3e 2a0d 763e 31e0 48be
00000030: c6de 6bbe 7041 4dbe 00ff 46be 5145 393e
00000040: 30c5 40be 75d0 56be ba9f 373e 35d8 303e
00000050: be0b 2d3e d746 2dbe d6f1 403e eedc 373e
00000060: 3088 56be 40ab 7a3e df89 68be fff4 833e
00000070: 2047 483e 67ec 03be e3df 303e 9f73 6fbe

weight_ih_l0 f4 [48, 32]
-0.26321653 -0.43614158 -0.24587788 0.45691606 0.037291154 -0.100763164 -0.18530561 0.124204546
-0.13747762 0.09329092 0.34913293 -0.3474678 0.24757117 -0.24278288 -0.3714927 -0.07265252
0.035864595 0.12222672 -0.0015596882 -0.3335628 0.3628989 0.031167008 0.018280074 -0.24385567
0.33963278 -0.052369244 -0.13334939 -0.020036628 0.3013177 0.30218342 -0.03141224 0.26248857
0.15946923 -0.036670234 -0.36458412 0.010645724 -0.26258457 0.037832197 -0.21054304 0.021379957
0.078074925 -0.0014638277 0.40896547 -0.041900214 -0.04869649 -0.18140629 -0.20990057 0.13781735
-0.1774316 -0.04717246 -0.22993715 0.1233139 0.4499218 -0.11539835 0.009675779 0.12684242
0.22515543 0.36317527 -0.10678018 0.10887856 0.31169662 0.23413213 0.3667519 0.07415962
0.36124074 0.13147384 -0.1394136 -0.46253225 0.00045183787 0.49258828 -0.2801484 0.2657398
0.14981657 0.25598282 0.06194004 -0.21574624 -0.10514192 -0.25050193 0.13925985 0.08498414
-0.17063992 -0.2696778 0.6317483 0.42989624 -0.048988305 -0.015863 -0.05532304 0.40694153
-0.42248112 0.3120514 -0.12656473 0.05122768 0.22508238 -0.7088429 0.21861504 -0.43122798
-0.23785062 -0.22329673 -0.3667592 -0.0699283 -0.2370515 0.04891574 -0.47563028 -0.013408077
0.38687646 0.3854947 0.047133856 -0.30789638 -0.16481233 -0.26113632 -0.252486 0.29145002
-0.26542652 -0.23564823 0.18866032 0.21812128 0.10257297 -0.32919338 0.09367763 -0.16954717
0.027875 0.17465512 -0.28330186 0.38279927 0.3647884 -0.03143514 0.28005683 -0.0020404628
0.23872605 -0.42628515 -0.52421224 -0.055402018 -0.50421596 0.056903195 -0.4582676 0.32020602
0.31896135 0.07451982 0.1920336 -0.20648763 -0.2698584 -0.18864498 -0.5557822 0.10042189
-0.21659106 -0.3285252 0.0017059067 -0.04043148 0.3481179 -0.15527469 0.08943971 0.21903971
-0.32584384 0.21943688 -0.1568854 0.33333546 0.47206235 0.0378773 0.46897453 0.008031014
0.065291815 -0.24733986 0.08325918 0.34442976 -0.11937576 -0.16184135 -0.0022645022 -0.057588134
-0.15466315 -0.09559181 0.20391162 0.16727844 0.20875894 0.124814406 -0.33963794 -0.14120662
0.19835328 0.07166063 -0.01666991 -0.095885135 -0.1256726 0.22682218 -0.11856152 -0.0065475353
0.29832688 0.05479959 0.11687105 -0.070216365 -0.077561885 -0.15984184 -0.14164448 0.17745355
-0.27218673 0.09711563 0.29272643 -0.18409343 0.25575507 0.016400069 0.036107495 -0.2635161
-0.016707059 -0.29649627 -0.011531862 0.14490396 -0.06786773 -0.028695365 0.29482502 -0.0054189134
0.3165376 0.23323973 -0.032214027 0.13808902 -0.2651996 0.3081676 0.07737445 -0.03946357
0.1695401 -0.17721647 0.31416276 0.063703544 -0.06214972 -0.028437637 -0.07933145 -0.19010787
0.06660937 -0.28033885 -0.3169162 -0.2676004 -0.3285697 0.014140659 -0.5919074 0.35900897
0.2509159 0.06598905 0.28134236 -0.5090797 -0.17101203 -0.523037 -0.29832032 0.27279192
-0.3455449 -0.15149361 -0.049330346 -0.007425593 0.4746829 -0.40378755 0.26615292 -0.1194008
-0.21298853 0.3357537 -0.18152177 0.061135095 0.08761774 -0.15734994 0.32449076 0.05872511
00000000: 51c4 86be f34d dfbe 69c7 7bbe e7f0 e93e
00000010: 9cbe 183d eb5c cebd c1c0 3dbe f45e fe3d
00000020: efc6 0cbe 4f0f bf3d 8dc1 b23e 4de7 b1be
00000030: 4c83 7d3e 139c 78be 4b34 bebe d8ca 94bd
00000040: c1e6 123d 0152 fa3d 746e ccba bec8 aabe
00000050: e2cd b93e f451 ff3c 18c0 953c 4db5 79be
00000060: 59e4 ad3e 2281 56bd be8c 08be db23 a4bc
00000070: 5046 9a3e c9b7 9a3e 1faa 00bd e764 863e
00000080: e74b 233e 8733 16bd c5aa babe 676b 2e3c
00000090: 7c71 86be eff5 1a3d 9898 57be 0525 af3c
000000a0: bfe5 9f3d e8dd bfba ec63 d13e 8f9f 2bbd
000000b0: f875 47bd 92c2 39be 2df0 56be fe1f 0d3e
000000c0: a1b0 35be e937 41bd a574 6bbe ff8b fc3d
000000d0: 265c e63e f855 ecbd 2987 1e3c fbe2 013e
000000e0: 258f 663e 1cf2 b93e 91af dabd b9fb de3d
000000f0: b396 9f3e 55c0 6f3e e8c6 bb3e 00e1 973d
00000100: 8cf4 b83e 14a1 063e 70c2 0ebe 07d1 ecbe
00000110: a7e4 ec39 8834 fc3e 9c6f 8fbe 0c0f 883e
00000120: 8469 193e 2e10 833e d7b4 7d3d 95ec 5cbe
00000130: a654 d7bd ca41 80be 229a 0e3e 2a0c ae3d
00000140: 3bbc 2ebe 3513 8abe 42ba 213f 5c1b dc3e
00000150: f6a7 48bd 1ff3 81bc 699a 62bd a45a d03e
00000160: 724f d8be 33c5 9f3e 2f9a 01be 1ed4 513d
00000170: ff7b 663e ba76 35bf 9fdc 5f3e eac9 dcbe
00000180: 1d8f 73be e6a7 64be ddc7 bbbe 9236 8fbd
00000190: a1bd 72be df5b 483d d085 f3be 8dad 5bbc
000001a0: ac14 c63e 905f c53e 6e0f 413d 98a4 9dbe
000001b0: 90c4 28be a9b3 85be d845 81be f038 953e
000001c0: fce5 87be c54d 71be 2c30 413e 2f5b 5f3e
000001d0: c711 d23d 098c a8be 0fda bf3d c69d 2dbe
000001e0: 1d5a e43c cbd8 323e f10c 91be 44fe c33e
000001f0: 8cc5 ba3e 22c2 00bd 9c63 8f3e 49b9 05bb
00000200: 9a74 743e 0c42 dabe c632 06bf 3aed 62bd
00000210: 4c14 01bf 5313 693d 0da2 eabe 0bf2 a33e
00000220: e74e a33e d99d 983d 75a4 443e 7e71 53be
00000230: e12a 8abe 262c 41be be47 0ebf fea9 cd3d
00000240: 0cca 5dbe 7434 a8be bb98 df3a 7b9b 25bd
00000250: 823c b23e 5400 1fbe 2b2c b73d f24b 603e
00000260: 01d5 a6be 10b4 603e 91a6 20be f2aa aa3e
00000270: 28b2 f13e 3a25 1b3d 6e1d f03e 8494 033c
00000280: b7b7 853d a946 7dbe ca83 aa3d 1959 b03e
00000290: 477b f4bd bdb9 25be 0b68 14bb 89e1 6bbd
000002a0: 0460 1ebe a4c5 c3bd 35ce 503e 0a4b 2b3e
000002b0: e7c4 553e b29e ff3d 06e5 adbe 7898 10be
000002c0: 1f1d 4b3e cfc2 923d 568f 88bc 6d5f c4bd
000002d0: 51b0 00be 1344 683e 62d0 f2bd b58c d6bb
000002e0: 4dbe 983e 8975 603d 175a ef3d 99cd 8fbd
000002f0: c4d8 9ebd 94ad 23be 400b 11be 62b6 353e
00000300: 0f5c 8bbe 8fe4 c63d 3de0 953e fd82 3cbe
00000310: 54f2 823e 7059 863c 74e5 133d 95eb 86be
00000320: 3edd 88bc 5cce 97be 23f0 3cbc b461 143e
00000330: 3dfe 8abd 8b12 ebbc 4ef3 963e 2491 b1bb
00000340: 3711 a23e 65d6 6e3e dbf2 03bd 3567 0d3e
00000350: 3ec8 87be 25c8 9d3e 7f76 9e3d 8da4 21bd
00000360: ec9b 2d3e 3c78 35be f1d9 a03e 0177 823d
00000370: b490 7ebd 0cf6 e8bc 8778 a2bd a3ab 42be
00000380: 7e6a 883d 9388 8fbe d742 a2be eb02 89be
00000390: 4a3a a8be 39ae 673c 3e87 17bf 06d0 b73e
000003a0: 0d78 803e 4425 873d 1b0c 903e 0c53 02bf
000003b0: c71d 2fbe c1e5 05bf 71bd 98be 62ab 8b3e
000003c0: 43eb b0be 2421 1bbe 9e0e 4abd 6452 f3bb
000003d0: a309 f33e 3ebd cebe 3245 883e 6888 f4bd
000003e0: aa19 5abe e9e7 ab3e d8e0 39be cb68 7a3d
000003f0: ee70 b33d 5820 21be a723 a63e be89 703d

weight_hh_l0 f4 [48, 16]
0.18387 0.09759637 -0.1934965 -0.15114515 0.42166513 0.50527334 -0.2228568 -0.13147429
-0.62142384 -0.20182928 -0.3566755 0.15170161 -0.55413413 -0.2846916 0.27424222 -0.502818
0.116191685 0.33767343 -0.19398282 -0.15836889 0.42032805 0.47452536 -0.29479492 -0.13414569
-0.12912527 -0.23636933 -0.50349844 -0.16440259 -0.10778039 -0.12758459 0.2207248 -0.440499
-0.07290993 0.24673678 0.13854347 -0.04358063 -0.41710883 0.08419414 -0.09112874 -0.029729256
0.1927489 0.043431047 -0.13290946 0.2888582 0.6181906 -0.3935066 0.09611635 -0.26227877
0.21040131 0.14190528 -0.45292905 0.01819207 0.36973137 0.48942322 -0.41943285 -0.06527457
-0.522386 0.045227803 -0.16942678 0.02981353 -0.37132102 -0.022606116 0.43368024 -0.21810259
-0.026508654 0.23238923 0.19579563 -0.38300163 0.04189574 0.15660782 -0.19323453 -0.20140986
0.0073354156 -0.3670732 -0.16637786 -0.09640567 0.17844206 -0.41185442 0.08016239 0.04885286
0.36086732 0.32899496 -0.13330328 -0.22589314 0.3553477 0.49561173 -0.46310973 -0.13063073
-0.4496183 -0.3359887 -0.2531904 -0.13034387 0.017393755 -0.1960173 0.17088792 -0.4011073
0.15443142 -0.24125575 -0.09704781 -0.17098944 -0.21477017 0.12230038 0.36542788 -0.029859124
0.16503519 0.112117864 -0.17348734 -0.15558122 0.110443376 0.029092753 -0.11073895 -0.057807386
0.4820682 0.42029566 -0.012412386 -0.41131875 -0.028558286 0.58832645 -0.58270985 -0.013081936
-0.39488947 0.018337313 -0.44203028 0.05378696 -0.0999141 -0.044458408 0.5203389 -0.10511651
0.119285 0.027027093 0.035474457 0.1356915 -0.5654417 0.23834676 -0.19879575 0.22967204
0.08812677 -0.24481921 -0.18796584 -0.012138503 0.6493972 0.009149115 0.12425173 -0.02543757
-0.045640513 0.18648289 -0.39966482 0.014534361 0.43424508 0.5201344 -0.577527 -0.19235599
-0.57060355 -0.067071594 -0.55998796 0.17097238 -0.18685652 0.09011487 0.56147724 -0.11302501
0.27357665 0.02793542 -0.54308736 -0.0688088 0.15869996 0.39140135 -0.28136596 -0.25769088
-0.39580786 0.16292363 -0.09619716 -0.14525785 -0.1614617 -0.07006518 0.33724573 -0.15465793
0.2371972 0.48676777 -0.4414349 -0.21822682 0.12687193 0.6758003 -0.6043324 -0.38062733
-0.27872375 -0.29881474 -0.41238552 0.069246195 0.0014875283 -0.24649644 0.43984106 -0.27626106
0.43454972 0.43889323 0.07659143 -0.17627028 -0.038448494 0.061762974 -0.17117454 -0.14997463
-0.25603467 -0.05367135 -0.10156205 0.0039010271 0.29251674 -0.39895695 0.36803332 -0.19966549
0.35948065 0.4450496 -0.30303523 0.023698388 0.5270584 0.64326966 -0.55006194 -0.08569817
-0.11453231 -0.4129388 -0.37260476 0.07470089 -0.37731737 -0.01777468 0.32219803 -0.39625552
0.04119796 0.018945567 -0.09921851 0.10307528 0.26148033 0.25822878 -0.40320557 0.014589383
0.04166889 -0.13678853 -0.24846518 0.135162 -0.22850811 -0.18068367 0.088898264 -0.20787588
0.19453096 0.22203058 -0.2406896 0.08804517 0.6358525 0.14550835 -0.15158866 -0.37353468
-0.4137761 -0.010040463 0.05711408 -0.1351181 -0.7379203 0.30123055 0.38894188 -0.34270802
00000000: 6b48 3c3e 9be0 c73d f223 46be cbc5 1abe
00000010: 7ee4 d73e 9859 013f 9334 64be 32a1 06be
00000020: a215 1fbf 56ac 4ebe 2c9e b6be ab57 1b3e
00000030: bcdb 0dbf 19c3 91be 7a69 8c3e aeb8 00bf
00000040: e8f5 ed3d 88e3 ac3e 6fa3 46be 742b 22be
00000050: 3d35 d73e fdf4 f23e 5cef 96be 7d5d 09be
00000060: 6a39 04be cd0a 72be 46e5 00bf 2759 28be
00000070: f7bb dcbd 89a5 02be af05 623e 1689 e1be
00000080: cd51 95bd 91a8 7c3e 57de 0d3e 9a81 32bd
00000090: 4a8f d5be fa6d ac3d b4a1 babd c58a f3bc
000000a0: f85f 453e c1e4 313d 6b19 08be 39e5 933e
000000b0: bd41 1e3f b279 c9be a6d8 c43d 6749 86be
000000c0: 7173 573e 9e4f 113e 51e6 e7be 8907 953c
000000d0: 6e4d bd3e ae95 fa3e e7bf d6be acae 85bd
000000e0: 17bb 05bf ca40 393d 377e 2dbe 813b f43c
000000f0: ca1d bebe 7630 b9bc 560b de3e 4956 5fbe
00000100: ad28 d9bc 71f7 6d3e a67e 483e ca18 c4be
00000110: de9a 2b3d cd5d 203e 46df 45be 633e 4ebe
00000120: ed5d f03b 05f1 bbbe f55e 2abe 5670 c5bd
00000130: 84b9 363e 95de d2be 2e2c a43d f019 483d
00000140: 9ac3 b83e 0772 a83e a880 08be 8850 67be
00000150: 22f0 b53e d2c0 fd3e b81c edbe 10c4 05be
00000160: 5f34 e6be b606 acbe 2ca2 81be dd78 05be
00000170: 597d 8e3c c2b8 48be 3efd 2e3e f05d cdbe
00000180: 4523 1e3e bf0b 77be 01c1 c6bd db17 2fbe
00000190: b6ec 5bbe 9f78 fa3d 5d19 bb3e 1f9b f4bc
000001a0: fcfe 283e 0d9e e53d aaa6 31be af50 1fbe
000001b0: 2330 e23d ed53 ee3c 1acb e2bd 70c7 6cbd
000001c0: a5d1 f63e fe30 d73e 525d 4bbc 5f98 d2be
000001d0: 11f3 e9bc 909c 163f 792c 15bf 9e55 56bc
000001e0: f42e cabe 2238 963c cb51 e2be b74f 5c3d
000001f0: c39f ccbd 051a 36bd ee34 053f 5347 d7bd
00000200: b24b f43d ec67 dd3c aa4d 113d b6f2 0a3e
00000210: cac0 10bf 2c11 743e 1d91 4bbe 262f 6b3e
00000220: cf7b b43d e3b1 7abe 1e7a 40be 92e0 46bc
00000230: e53e 263f 2be6 153c b177 fe3d 7362 d0bc
00000240: 8cf1 3abd 5ff5 3e3e dea0 ccbe 8721 6e3c
00000250: 5f55 de3e 8727 053f cfd8 13bf f8f8 44be
00000260: 1313 12bf d55c 89bd 5f5b 0fbf 6213 2f3e
00000270: 5157 3fbe 258e b83d f9bc 0f3f a879 e7bd
00000280: 3d12 8c3e d2d8 e43c c607 0bbf a1eb 8cbd
00000290: 3e82 223e c265 c83e 330f 90be 0ff0 83be
000002a0: 54a7 cabe 74d5 263e 0403 c5bd 79be 14be
000002b0: 3756 25be 557e 8fbd 79ab ac3e a65e 1ebe
000002c0: d3e3 723e a039 f93e c103 e2be da76 5fbe
000002d0: b7ea 013e 4001 2d3f 87b5 1abf 96e1 c2be
000002e0: e1b4 8ebe 3ffe 98be 3224 d3be f3d0 8d3d
000002f0: 2bf9 c23a 9069 7cbe d932 e13e 1772 8dbe
00000300: 4d7d de3e 9db6 e03e f8db 9c3d 3280 34be
00000310: 2b7c 1dbd 2cfb 7c3d 6148 2fbe f392 19be
00000320: fa16 83be 7dd6 5bbd c4ff cfbd 60a8 7f3b
00000330: c1c4 953e 1644 ccbe dd6e bc3e 1c75 4cbe
00000340: d90d b83e 8bdd e33e 6f27 9bbe 1f23 c23c
00000350: 4ded 063f 52ad 243f dcd0 0cbf 8682 afbd
00000360: ea8f eabd b76c d3be 0dc6 bebe c8fc 983d
00000370: be2f c1be 359c 91bc 24f7 a43e 01e2 cabe
00000380: 31bf 283d bc33 9b3c 1333 cbbd 2219 d33d
00000390: c0e0 853e 9036 843e f670 cebe 4f08 6f3c
000003a0: ffac 2a3d 4b12 0cbe a86d 7ebe e867 0a3e
000003b0: 08fe 69be 2405 39be 4b10 b63d 6add 54be
000003c0: 2033 473e fc5b 633e 5677 76be 0751 b43d
000003d0: 3bc7 223f 2400 153e 0f3a 1bbe f03f bfbe
000003e0: 76da d3be c180 24bc 74f0 693d 665c 0abe
000003f0: 58e8 3cbf e43a 9a3e 6423 c73e 6d77 afbe

bias_ih_l0 f4 [48]
-0.07621168 0.16656762 0.19137499 0.4819202 0.2734726 0.18929753 -0.31055576 0.07135567
-0.059259497 0.12417875 0.2939016 0.2686505 0.31181347 -0.022630464 0.051009614 -0.009753646
-0.022953384 -0.2084289 0.075775914 -0.17621665 -0.2957874 -0.22698055 -0.32521588 -0.1030034
-0.30559474 -0.13138197 -0.06633336 -0.3228153 -0.1378959 -0.23591535 0.011147085 0.019023325
0.27673575 0.21620025 -0.34736574 -0.007417392 0.3614982 0.3379474 -0.24815005 -0.19628012
-0.22679245 0.12575519 -0.104261145 -0.13118295 -0.0047144294 -0.18819968 0.15333606 -0.31058326
00000000: df14 9cbd b490 2a3e cef7 433e 3fbe f63e
00000010: 9a04 8c3e 36d7 413e 2a01 9fbe ec22 923d
00000020: 16ba 72bd 6e51 fe3d 457a 963e 8f8c 893e
00000030: 04a6 9f3e 8663 b9bc 75ef 503d c2cd 1fbc
00000040: bc08 bcbc 636e 55be 6730 9b3d 2372 34be
00000050: 7271 97be 976d 68be b282 a6be 72f3 d2bd
00000060: ea76 9cbe ff88 06be c9d9 87bd 0c48 a5be
00000070: 9534 0dbe cb93 71be 43a2 363c ced6 9b3c
00000080: 4fb0 8d3e 9963 5d3e ecd9 b1be 980d f3bb
00000090: 4b16 b93e 7107 ad3e 0c1b 7ebe a8fd 48be
000000a0: 483c 68be f8c5 003e de86 d5bd d354 06be
000000b0: 807b 9abb 6bb7 40be 2104 1d3e c504 9fbe

bias_hh_l0 f4 [48]
-0.037899353 -0.03766335 -0.029007971 0.4030088 0.3840514 -0.18931021 -0.3467916 0.12279019
0.025439197 0.37240943 0.21960819 0.4838406 0.22072731 0.00966864 0.2550269 0.0043041613
-0.06080887 -0.3591683 0.0098732645 -0.4472826 -0.08511751 -0.46007982 -0.5541924 0.035002142
-0.19737692 -0.37279877 -0.07604814 -0.21996197 -0.32836005 -0.4939083 -0.30978498 0.10852461
-0.03359515 0.14979835 -0.27811083 -0.19551627 0.33406597 0.064159356 0.026776306 -0.115337834
-0.3182882 -0.28911385 -0.3330439 -0.044222765 -0.23699892 0.1478374 0.20638323 0.0737449
00000000: 5a3c 1bbd e344 1abd 20a2 edbc 2b57 ce3e
00000010: 63a2 c43e 89da 41be ab8e b1be 6c79 fb3d
00000020: dd65 d03c 73ac be3e f8e0 603e f5b9 f73e
00000030: 5706 623e 3769 1e3c e392 823e ec09 8d3b
00000040: b912 79bd e8e4 b7be 79c3 213c 3a02 e5be
00000050: 1752 aebd 958f ebbe 8edf 0dbf 685e 0f3d
00000060: 2d1d 4abe 7bdf bebe 21bf 9bbd b63d 61be
00000070: cf1e a8be 8ce1 fcbe 239c 9ebe 2742 de3d
00000080: 119b 09bd bd64 193e 8b64 8ebe 6b35 48be
00000090: b20a ab3e fb65 833d fc59 db3c 3e36 ecbd
000000a0: acf6 a2be bb06 94be bb84 aabe ee22 35bd
000000b0: d8af 72be b062 173e 2056 533e 9107 973d

weight f4 [2, 16]
-0.05064088 -0.18458378 0.14040178 -0.12860721 0.0044810176 -0.21666443 -0.018201023 -0.0862793
-0.001721859 0.0049667656 0.0051658154 -0.04046473 -0.2074593 0.058609724 -0.23825255 -0.17291096
0.308732 0.42016065 -0.49663672 -0.32677335 0.32871634 0.257947 -0.23383899 -0.49252504
-0.518002 -0.35108995 -0.45330432 -0.46524397 -0.4646323 -0.33636078 0.46200666 -0.4001273
00000000: d06c 4fbd 8803 3dbe 7cc5 0f3e 9cb1 03be
00000010: 80d5 923b 48dd 5dbe 501a 95bc 34b3 b0bd
00000020: 00b0 e1ba 40c0 a23b 0046 a93b 58be 25bd
00000030: 3670 54be c010 703d 7af8 73be 920f 31be
00000040: 1f12 9e3e 4c1f d73e 2b47 febe d64e a7be
00000050: 824d a83e a111 843e 7d73 6fbe 3e2c fcbe
00000060: c79b 04bf 10c2 b3be 8117 e8be 7534 eebe
00000070: 49e4 edbe 7b37 acbe 238c ec3e 7cdd ccbe

bias f4 [2]
-0.092172265 0.074856706
00000000: d0c4 bcbd 794e 993d
