DATA/final_output/mortality/MyVariableRNN.pth (torch_old, 154046 bytes, 8 tensors)

weight f4 [32, 1043]
0	0x3e40d0eb	0.18829696
1	0x3e4436d6	0.19161543
2	0x3e1326be	0.14370248
3	0xbd78f7cc	-0.060783193
4	0xbc0de266	-0.008659935
5	0xbcb20899	-0.021732615
6	0xbcdbd927	-0.026836945
7	0x3bc11357	0.005892198
8	0x3b6d277d	0.0036186867
9	0xbc21b44c	-0.009869646
10	0x3cf6e7d0	0.030139834
11	0x3cbddafd	0.02317571
12	0xbd57d527	-0.052693512
13	0xbc09aacc	-0.008402538
14	0xbcc28801	-0.023746492
15	0x3bd8b453	0.006613293
16	0x3c0b842d	0.0085154
17	0xbc9a2786	-0.018817674
18	0x3d46848c	0.04846625
19	0xbdae5869	-0.08512957
20	0x3c9ab15d	0.018883402
21	0xbce78bac	-0.028264843
22	0x3bc66495	0.006054471
23	0x3da6a64f	0.081371896
24	0x3d0ae2c5	0.03390767
25	0x3dc5d2ff	0.09659385
26	0x3d2b67e7	0.041847136
27	0xbdaaf244	-0.0834699
28	0xbd96ee46	-0.07369666
29	0x3d2c4877	0.042061295
30	0x3e16ccf1	0.14726616
31	0x3e1a32dc	0.15058464
32	0xbe86d686	-0.26335543
33	0x3c29ca46	0.010363167
34	0xbbb97dba	-0.0056607397
35	0xbca2f586	-0.019892465
36	0xbcb924fe	-0.022600647
37	0x3e1d8ea4	0.15386444
38	0x3c9dd653	0.019267237
39	0xbb83b065	-0.0040188306
40	0xbcc5d7b9	-0.024150716
41	0x3da9242e	0.08258854
42	0x3c98b6dc	0.018641882
43	0xbd18f578	-0.037343472
44	0xbca8887d	-0.020572895
45	0x3d80c0af	0.062867515
46	0x3cde0ae6	0.027104806
47	0x3c57cabd	0.013170895
48	0x3c511d7e	0.012763379
49	0xbc64e68e	-0.013970984
50	0x3dbf886a	0.09352191
51	0x3d59b966	0.053155325
52	0x3d6a7ce7	0.057248022
53	0xbae56e20	-0.0017504133
54	0x3d9605f0	0.07325351
55	0x3c971064	0.018440433
56	0x3bc8de08	0.006129984
57	0xbc96cece	-0.018409159
58	0xbe00d744	-0.12582117
59	0xbd4515c6	-0.048116468
60	0x3cc2f900	0.023800373
61	0xbd8cd292	-0.068761006
62	0x3dd58aa2	0.10426833
63	0xbda57335	-0.080786146
64	0x3d2c5e9f	0.042082425
65	0x3dc071cb	0.09396704
66	0x3d0c742d	0.03429048
67	0xbdd912b1	-0.10599268
68	0x3d6e879d	0.0582348
69	0x3d81bc76	0.06334774
70	0xbc8fc2d9	-0.017548965
71	0x3ddbf3b5	0.10739843
72	0x3cf3e66a	0.029772956
73	0x3d9031a5	0.07040719
74	0xb9d314f9	-0.00040260682
75	0x3dbdea78	0.09273237
76	0x3c970008	0.018432632
77	0xbdb0fc67	-0.08641892
78	0x3d0ad1a2	0.033891328
79	0xbcdb0143	-0.026734
80	0xbdc409eb	-0.09572204
81	0xbc1bd436	-0.009511044
82	0xbd46f8f4	-0.048577264
83	0x3d1f867f	0.038946625
84	0xbc69d1f4	-0.014271248
85	0x3d3784db	0.044804435
86	0x3c2a9b40	0.010412991
87	0x3b04ee96	0.002028381
88	0x3cc756ad	0.024333322
89	0xb9a1a85a	-0.00030833745
90	0x3dc2ac5a	0.0950553
91	0xbe1efb80	-0.15525627
92	0x3d909b98	0.07060927
93	0xbd191478	-0.037373036
94	0xbd486ceb	-0.048931997
95	0xbbedc23d	-0.007255821
96	0x3dc959e7	0.09831601
97	0xbbb302e7	-0.0054629925
98	0xbdc9d825	-0.098556794
99	0x3d930474	0.07178584
100	0x3da2a448	0.079414904
101	0x3c8710de	0.016487535
102	0x3cecfa5a	0.02892797
103	0x3c3dc6e2	0.011583062
104	0x3b852b9f	0.004064038
105	0x3da23899	0.079209514
106	0x3ad0afe7	0.0015921564
107	0xbd143b3b	-0.0361893
108	0xbc3fbbfb	-0.011702533
109	0xbd628f13	-0.055312227
110	0x3b0a280f	0.0021081006
111	0xbcae1782	-0.021251444
112	0xbd5373f9	-0.051624272
113	0x3d8e4596	0.06946866
114	0xbdc2fc3e	-0.09520768
115	0x3d710042	0.058838136
116	0x3d51422b	0.051088493
117	0xbe090720	-0.13381624
118	0x3cf56755	0.0299565
119	0xbd8323dc	-0.06403324
120	0x3ca76a46	0.020436417
121	0xba5f7158	-0.00085236644
122	0x3c7e467f	0.015519737
123	0x3d733380	0.059375286
124	0xbdb3a3af	-0.087714545
125	0x3d8beffa	0.06832881
126	0x3b2788ce	0.002556372
127	0xbd80dd4c	-0.06292209
128	0xbd514d69	-0.051099215
129	0xbd82982e	-0.06376682
130	0xbc9d8762	-0.019229595
131	0xbb1c99d7	-0.0023895407
132	0x3c2d5e61	0.010581584
133	0x3d102673	0.035192918
134	0x3e1cb10f	0.15301917
135	0x3d669b91	0.056300703
136	0xbd1c1987	-0.038110282
137	0x3c16d125	0.009205137
138	0x3bf21748	0.0073880292
139	0x3d93adef	0.072109096
140	0x3e0dfc47	0.13865767
141	0x3db475d7	0.08811539
142	0x3d39b45a	0.045338012
143	0xbd05fa5a	-0.032709457
144	0x3c9e5656	0.019328278
145	0xbd875fab	-0.06610044
146	0xbcd2a3c6	-0.025712859
147	0x3d595282	0.0530572
148	0x3afa5a47	0.0019100391
149	0x3dd3adde	0.10335897
150	0x3c90169d	0.017588908
151	0x3cee258b	0.029070636
152	0xbdc95ebb	-0.098325215
153	0x3dd28ffd	0.1028137
154	0xbdbd9982	-0.09257795
155	0x3cc215fb	0.023692122
156	0x3c4d92bd	0.012547192
157	0x3db17683	0.086651824
158	0x3d384157	0.044984188
159	0x3d073119	0.033005808
160	0xbcbdd38e	-0.023172166
161	0x3d1eed3a	0.038800456
162	0x3d052b21	0.032511834
163	0x39af3e5e	0.00033425068
164	0x3e1681e8	0.14697993
165	0x3d62eb35	0.055400092
166	0xbe16320e	-0.14667532
167	0xbd6bb7aa	-0.057548203
168	0xbd7cae00	-0.061689377
169	0xbd1e2f78	-0.03861949
170	0x3e1b8d25	0.15190561
171	0xbb9d9c91	-0.004809924
172	0x3d7dea2d	0.061990906
173	0xbd9c98cc	-0.07646331
174	0x3c4c4dec	0.01246975
175	0x3dc8f5c5	0.09812502
176	0x3d2f7fb0	0.04284638
177	0x3cc03f2a	0.023467619
178	0xbcb3cf8d	-0.021949554
179	0xbaaa3162	-0.0012984688
180	0xbdc941a9	-0.09826977
181	0xbd23fc56	-0.04003557
182	0xbda9e30a	-0.082952574
183	0x3d47008f	0.048584517
184	0x3c0a331b	0.008435036
185	0x3dc766ba	0.097363904
186	0x3db74fa4	0.08950737
187	0xbcf82c4f	-0.030294565
188	0x3ce40561	0.027834596
189	0x3a2be96d	0.00065579155
190	0x3dde8bdf	0.10866522
191	0xbd28febd	-0.041258562
192	0x3d36e76b	0.04465429
193	0x3da29bd3	0.07939877
194	0x3d620d4d	0.055188466
195	0x3cd76831	0.0262948
196	0xbcef0847	-0.029178752
197	0xbc0a38b3	-0.00843637
198	0xbc63ba9a	-0.01389947
199	0x3d8e42e0	0.06946349
200	0xbc911418	-0.017709777
201	0xbb952f03	-0.0045527234
202	0xbd054836	-0.03253957
203	0x3b448a3e	0.0029989625
204	0xbca8efa4	-0.020622082
205	0x3d393695	0.04521807
206	0xbd04e2f4	-0.032443002
207	0x3dae1d52	0.08501686
208	0x3ded01f0	0.11572635
209	0xbdc45f3b	-0.09588476
210	0x3d5ae95d	0.05344521
211	0x3c668f2f	0.014072224
212	0x3e0ce424	0.13758904
213	0x3d9dee05	0.07711414
214	0xbcaf3661	-0.021388235
215	0x3bec8e3a	0.007219103
216	0x3ddbd69a	0.107342914
217	0xbd5a3a3f	-0.053278204
218	0x3cfa36a6	0.030543637
219	0xbca7d00f	-0.020484952
220	0x3a82e53b	0.0009986529
221	0x3d4bfd57	0.04980215
222	0x3dedcb86	0.11611085
223	0xbd460451	-0.04834396
224	0x3d0ce7c9	0.034400735
225	0x3d8fd217	0.07022493
226	0xbe022261	-0.12708427
227	0x3d10fd5f	0.035397884
228	0xbe7b8e55	-0.24566014
229	0xbe798761	-0.24368049
230	0x3e335823	0.1751409
231	0x3d33e364	0.04391803
232	0x3c438d0e	0.0119354855
233	0x3db611e5	0.08890132
234	0xbd521e58	-0.05129847
235	0x3d86da18	0.06584567
236	0x3de570b8	0.1120314
237	0x3c9d151b	0.019175103
238	0x3dba6fac	0.09103331
239	0xbd852e9b	-0.0650303
240	0x3d9428b2	0.072343245
241	0x3d9013e5	0.070350446
242	0xbce779ef	-0.028256385
243	0x3c9a038c	0.01880052
244	0x3e0911e9	0.13385738
245	0xbd2fdb68	-0.04293385
246	0xbcdcf458	-0.02697198
247	0xbb13f3b5	-0.002257568
248	0xbad9349b	-0.0016571464
249	0x3d0de9a5	0.03464665
250	0xbcbfb8f5	-0.023403624
251	0x3d2d94c1	0.04237819
252	0x3dc4e14f	0.09613287
253	0x3c7861cb	0.015160034
254	0xbc90cdb8	-0.01767622
255	0xbcbeebed	-0.023305858

bias f4 [32]
0	0x3dfa601c	0.12225363
1	0xbe655c82	-0.2239857
2	0xbe5cabd0	-0.21549916
3	0xbe223959	-0.15842189
4	0xbe900232	-0.28126675
5	0x3e5a66cf	0.21328281
6	0xbe6bb729	-0.23019089
7	0x3e73bafd	0.23801799
8	0x3e383682	0.17989543
9	0x3e2277a2	0.15865949
10	0x3e669ecb	0.22521512
11	0xbe536418	-0.20643651
12	0xbe35d857	-0.17758308
13	0xbe64384b	-0.22287099
14	0xbe4f76d1	-0.20260169
15	0x3e343870	0.17599654
16	0xbe57eb83	-0.21085934
17	0xbe610934	-0.21976167
18	0x3e183aec	0.14866227
19	0x3e56cca0	0.20976496
20	0x3e2c6996	0.16837153
21	0xbe1f7dfd	-0.15575404
22	0x3e1d8879	0.15384091
23	0x3e15832b	0.14600818
24	0xbe4926ae	-0.19643661
25	0x3e4e00ca	0.20117489
26	0xbe431b41	-0.19053365
27	0x3e4f46a9	0.20241798
28	0x3e488120	0.19580507
29	0xbdfdf528	-0.124002755
30	0x3e487df8	0.19579303
31	0xbea1bdeb	-0.31590208

weight_ih_l0 f4 [48, 32]
0	0xbe6723fb	-0.22572319
1	0xbf0743ca	-0.5283781
2	0xbe945a29	-0.28975037
3	0x3efa31cc	0.48866117
4	0xbbb82b00	-0.0056203604
5	0x3e9fc02f	0.31201312
6	0xbdbfbc40	-0.09362078
7	0x3ec18687	0.3779795
8	0x3d03f879	0.032219384
9	0xbb1b34ce	-0.0023682597
10	0x3eb97cf5	0.36228147
11	0xbebe66a9	-0.37187698
12	0x3e9a54c0	0.30142784
13	0xbed007f4	-0.40631068
14	0xbee048c8	-0.43805528
15	0xbddc5c4a	-0.1075979
16	0xbd77fe80	-0.060545444
17	0xbe155514	-0.14583236
18	0x3bd1e05e	0.0064049205
19	0x3d955e28	0.072933495
20	0x3e9f8faf	0.3116431
21	0xbc2023c3	-0.009774151
22	0xbe753eb0	-0.23949695
23	0xbe7d6751	-0.24746443
24	0x3e45d180	0.19318199
25	0xbe176f34	-0.14788514
26	0x3d6a058a	0.05713419
27	0xbe0c17bc	-0.13680929
28	0x3ea2fa8e	0.31831783
29	0x3eb2331c	0.34804618
30	0x3db529b6	0.08845846
31	0xbeb11c6f	-0.34592006
32	0x3ec11ac1	0.37715724
33	0x3dbba117	0.09161585
34	0xbe8593ea	-0.26089412
35	0xbe72cda6	-0.23711261
36	0xbe09aaf9	-0.13444127
37	0x3e0c9d8b	0.13731973
38	0xbdebb348	-0.115088046
39	0x3df1c09b	0.11804315
40	0x3daf11ce	0.08548318
41	0xbd339695	-0.043844778
42	0x3e8f012a	0.27930576
43	0xbbe63689	-0.007025544
44	0xbe9193dc	-0.2843312
45	0xbd56a1bb	-0.052400332
46	0xbdb96778	-0.09052938
47	0x3e2c93b8	0.16853225
48	0xbe2c3dd8	-0.16820467
49	0xbd96d5ac	-0.073649734
50	0x3d3ec3c6	0.046573423
51	0x3e5baa9c	0.21451801
52	0x3eb6f76f	0.35735652
53	0xbd919443	-0.07108357
54	0x3ddbebc3	0.10738327
55	0x3ec9de78	0.39427543
56	0x3d9931b2	0.07480182
57	0x3eb5a296	0.35475606
58	0xbe0e490c	-0.13895053
59	0x3e542239	0.2071618
60	0x3e87cba7	0.26522562
61	0xbcbe07d3	-0.02319709
62	0x3ea3ba94	0.31978285
63	0xbc93f6b7	-0.018061979
64	0x3e47630d	0.19471379
65	0x3bfaa50d	0.00764907
66	0xbe92a7c9	-0.28643635
67	0xbeb6c5a7	-0.35697672
68	0xbe0b8985	-0.13626678
69	0x3e92f537	0.2870271
70	0xbee95fe9	-0.45580986
71	0x3e66368c	0.22481745
72	0x3e4abab8	0.1979779
73	0x3ec839dd	0.39106646
74	0x3e91c50b	0.28470644
75	0xbeb82239	-0.3596361
76	0xbbfeecde	-0.0077797016
77	0xbeb2a479	-0.34891108
78	0xbaf0605f	-0.0018339268
79	0x3e2166f4	0.1576193
80	0xbe96fbbb	-0.2948893
81	0xbe97225f	-0.2951841
82	0x3ecef8e2	0.40424258
83	0x3ea4d699	0.32194975
84	0x3dfc4a89	0.12318904
85	0xbde5a79e	-0.11213611
86	0x3d8f9004	0.07009891
87	0x3e4cfabc	0.20017523
88	0xbed5c7e7	-0.41754076
89	0x3ef072a0	0.46962452
90	0xbe8fcb3a	-0.28084737
91	0x3e711c5e	0.23545977
92	0x3eb9e67b	0.36308655
93	0xbf018f17	-0.5060896
94	0x3eb0ebfb	0.3455504
95	0xbe431cce	-0.19053957
96	0xbe7c1708	-0.2461816
97	0xbe989d38	-0.29807448
98	0xbed93330	-0.42421865
99	0xbd4a485b	-0.04938541
100	0xbe95a5a8	-0.29227948
101	0x3ec8e060	0.39233685
102	0xbedfeed9	-0.43736914
103	0x3e64ea30	0.2235496
104	0x3f0a9055	0.54126483
105	0x3e91f920	0.2851038
106	0x3d4d5570	0.050130308
107	0xbeabfecb	-0.3359283
108	0xbe02719d	-0.12738653
109	0xbec4b827	-0.38421747
110	0xbea332a0	-0.3187456
111	0x3e7f1832	0.24911574
112	0xbec88d89	-0.39170483
113	0xbeed74d6	-0.463782
114	0x3e416d8d	0.18889447
115	0x3f08a68d	0.53379136
116	0x3dcae9e0	0.09907889
117	0xbeb47c9b	-0.35251316
118	0xbdd51450	-0.10404265
119	0xbe462d74	-0.19353276
120	0xbbdc36c4	-0.0067203958
121	0x3df44797	0.11927717
122	0xbe28d691	-0.164881
123	0x3ea406db	0.3203648
124	0x3ed52897	0.4163253
125	0xbc395bcb	-0.011313389
126	0x3ec9548d	0.3932232
127	0xbed5e151	-0.41773465
128	0x3eedaaa6	0.46419257
129	0xbe39fb5c	-0.18162292
130	0xbeaba172	-0.3352161
131	0xbed5e477	-0.41775867
132	0xbe8eac32	-0.2786575
133	0xbc196cdc	-0.009364333
134	0xbe8b37e9	-0.27191094
135	0x3e891801	0.26776126
136	0x3e4940a3	0.19653563
137	0xbd3e901c	-0.046524152
138	0xbd972f79	-0.073821016
139	0xbd262112	-0.040558882
140	0xbf273f4c	-0.6533096
141	0x3d3dd40d	0.046344806
142	0xbea21607	-0.3165743
143	0x3d48b7e4	0.049003497
144	0xbdd28111	-0.10278524
145	0xbe585d26	-0.21129283
146	0x3ef60758	0.48052478
147	0xbe2677fa	-0.16256705
148	0x3e3a3e64	0.18187863
149	0x3cb5e534	0.02220402
150	0x3eb79f66	0.358638
151	0x3f1344e9	0.57527024
152	0xbeee5470	-0.46548796
153	0x3e39f6c4	0.1816054
154	0xbe3d62ae	-0.18494675
155	0x3eea8ea9	0.45811966
156	0x3eb2c3b5	0.34914938
157	0xbeb77e82	-0.35838705
158	0x3e88f72d	0.2675108
159	0x3e04a514	0.12953597
160	0xbd6f8086	-0.05847218
161	0xbe84cea5	-0.25938907
162	0x3dde2f9c	0.108489245
163	0x3efdbeaa	0.49559528
164	0xbdb8f574	-0.090311915
165	0xbb29959c	-0.0025876528
166	0x3de452a5	0.11148576
167	0xbc90750e	-0.017633941
168	0xbe0173b5	-0.12641795
169	0xbe57ca2c	-0.21073216
170	0x3e39e8d9	0.1815523
171	0x3e593108	0.2121011
172	0x3ea72bf9	0.32650736
173	0x3d7d1ab1	0.061793033
174	0xbeae1d65	-0.340068
175	0xbe67abbf	-0.2262411
176	0x3e549211	0.20758845
177	0x3ba426ab	0.0050094924
178	0xbe33502b	-0.1751105
179	0x3d4813e0	0.04884708
180	0xbe577372	-0.21040133
181	0x3e7497e0	0.2388606
182	0xbeace352	-0.33767182
183	0xbdfb6d3f	-0.122766964
184	0x3ea75b27	0.3268673
185	0xbd92a50b	-0.07160386
186	0x3e933ba8	0.28756452
187	0xbe61c8f0	-0.22049308
188	0xbe015751	-0.12630965
189	0x3c52c1da	0.012863601
190	0xbdee8678	-0.11646742
191	0xbe05a71a	-0.13052025
192	0xbe27090a	-0.16312042
193	0xbe8908ee	-0.26764625
194	0xbda4072e	-0.08009182
195	0xbe50535d	-0.203443
196	0xbdf1cfc7	-0.118072085
197	0x3e971509	0.29508236
198	0xbeb8fe24	-0.36131394
199	0x3d3811c9	0.044938836
200	0x3e9bea16	0.3045203
201	0xbc5bf3f6	-0.013424864
202	0x3ea1f3c7	0.316313
203	0xbe3ee94f	-0.18643688
204	0xbddd1f76	-0.10797016
205	0xbebef1a8	-0.37293744
206	0xbdadd7e3	-0.08488443
207	0x3e85fbcc	0.26168668
208	0xbd3a2e77	-0.04545447
209	0xbdc71d47	-0.09722381
210	0x3ca78bcf	0.020452408
211	0x3eb869e6	0.36018294
212	0x3db79836	0.08964579
213	0x3d9589ef	0.07301699
214	0x3e52ef56	0.20599112
215	0xbc94bcc7	-0.018156422
216	0x3dbee4e3	0.093210004
217	0x3e1238d9	0.14279498
218	0x3ca93537	0.020655258
219	0x3e9edae6	0.3102638
220	0x3e94fc15	0.29098573
221	0xbde2300c	-0.110443205
222	0x3e768a17	0.24076115
223	0xbee6ad7b	-0.4505423
224	0x3e014d6d	0.12627192
225	0xbe9052b9	-0.28188112
226	0xbe9d08df	-0.3067083
227	0xbe9bcf3d	-0.30431548
228	0xbe96e301	-0.29470065
229	0x3e7bf6ef	0.24605916
230	0xbf023669	-0.50864273
231	0x3f013349	0.5046888
232	0x3ea8855f	0.32914254
233	0xbd0c038d	-0.034183074
234	0x3e66aaae	0.22526047
235	0xbefd1a40	-0.4943409
236	0xbe5cedd6	-0.21575102
237	0xbf0efc35	-0.5585359
238	0xbe959bd4	-0.2922045
239	0x3e6b0bb5	0.22953685
240	0xbecc875a	-0.39947015
241	0xbe91906f	-0.28430507
242	0x3b41b9c2	0.0029560183
243	0x3e55eeb1	0.20891835
244	0x3ed4a788	0.41534066
245	0xbec1f0b1	-0.37878945
246	0x3e034f94	0.12823325
247	0xbddca070	-0.107727885
248	0xbe9772c0	-0.29579735
249	0x3e835ac4	0.25655186
250	0xbd9c0bf5	-0.07619468
251	0x3cc05dfd	0.023482317
252	0x3d89c127	0.06726294
253	0xbe4c0c6e	-0.19926617
254	0x3ebc2223	0.36744794
255	0xbe83bfa4	-0.25732148

weight_hh_l0 f4 [48, 16]
0	0x3e79ffa9	0.24413933
1	0x3dec063e	0.11524628
2	0xbe18e281	-0.14930154
3	0xbe2765be	-0.16347405
4	0x3eb19716	0.34685582
5	0x3ef57182	0.47938162
6	0x3d16fb21	0.03686059
7	0xbdaa3e1c	-0.08312628
8	0xbf0f0f26	-0.5588249
9	0xbeea3a40	-0.45747566
10	0xbec62ae2	-0.38704592
11	0x3dd724cd	0.10505066
12	0xbe8dbd2f	-0.27683398
13	0xbef831c0	-0.48475456
14	0x3e3b9cd1	0.1832154
15	0xbece32be	-0.40273088
16	0x3be2f481	0.00692612
17	0x3d89ae0b	0.06722649
18	0x3dbe6636	0.09296839
19	0xbd3d50c4	-0.046219602
20	0x3be29443	0.006914647
21	0x3dc6f675	0.09714977
22	0x3ed68866	0.4190094
23	0x3e11abf4	0.14225751
24	0x3e9baf1d	0.30407038
25	0xbe70cecf	-0.23516391
26	0xbe755682	-0.23958781
27	0xbe593358	-0.21210992
28	0x3f13f8d9	0.57801586
29	0xbea56d58	-0.32309985
30	0xbe0f3dde	-0.13988444
31	0xbe2df44a	-0.1698772
32	0x3c549b8c	0.012976538
33	0x3eaa9d8e	0.3332333
34	0x3ba5c419	0.005058777
35	0xbd6fcc82	-0.058544643
36	0x3dc12406	0.09430699
37	0x3e6647c0	0.22488308
38	0x3e460ad4	0.19340068
39	0xbbce8e46	-0.0063035814
40	0x3e3745f9	0.17897786
41	0xbda12fbb	-0.07870432
42	0xbe948667	-0.2900879
43	0x3ec5ef4a	0.38659126
44	0x3eb26ae9	0.3484719
45	0xbe9d156e	-0.30680412
46	0x3e059822	0.13046315
47	0xbe65277d	-0.22378345
48	0x3e6d06e9	0.23147167
49	0x3e1f281e	0.15542647
50	0xbee34f4b	-0.44396433
51	0xbbbc7237	-0.00575092
52	0x3eab0bf5	0.3340756
53	0x3ed9cf27	0.42540857
54	0xbe753d10	-0.23949075
55	0xbcc867d5	-0.024463573
56	0xbef34a24	-0.47517502
57	0xbe9adc8c	-0.3024639
58	0xbe299eaf	-0.16564439
59	0xbd96cbad	-0.07363067
60	0xbe21d84a	-0.15805164
61	0xbe56be49	-0.20971026
62	0x3e9cb74a	0.30608588
63	0xbd1e3992	-0.038629122
64	0xbe755e83	-0.23961835
65	0xbd3bc872	-0.045845456
66	0x3ed6d4c8	0.41959214
67	0xbe0165bc	-0.12636465
68	0xbc896266	-0.016770553
69	0xbd42bac1	-0.047541384
70	0x3ec261b2	0.3796516
71	0x3dd5a210	0.104313016
72	0x3ebbc78d	0.36675683
73	0xbe11f10e	-0.14252111
74	0x3cf84fd5	0.030311504
75	0x3e870dba	0.2637766
76	0x3f0e6a96	0.5563139
77	0xbe930f33	-0.28722534
78	0xbe061b77	-0.13096415
79	0x3ebb5c90	0.36594057
80	0x3e6a52dd	0.22883172
81	0x3e4e70ec	0.20160264
82	0xbc2c9d2e	-0.010535521
83	0xbdcb9036	-0.099396154
84	0x3ebb85e2	0.36625582
85	0x3e9c83be	0.3056926
86	0xbebc6d4c	-0.36802137
87	0x3c2c7076	0.01052486
88	0xbe8e8048	-0.27832246
89	0xbe7be333	-0.24598388
90	0xbdc68d83	-0.0969496
91	0xbd88d2cc	-0.06680831
92	0x3d8d1e7a	0.068905786
93	0xbdc3d04f	-0.09561216
94	0xbd7e6f1c	-0.06211768
95	0xbe79d917	-0.2439922
96	0x3f313e3e	0.692356
97	0x3ee25b59	0.44210318
98	0xbf071e99	-0.52781063
99	0xbeb5af1e	-0.35485166
100	0x3ee118a3	0.4396411
101	0x3f65dba2	0.8978826
102	0xbcaad93d	-0.02085554
103	0xbe804de0	-0.25059414
104	0xbeab49dc	-0.33454788
105	0xbf1ea7c1	-0.6197472
106	0xbf627126	-0.884539
107	0x3cc75174	0.024330832
108	0xbdf33591	-0.11875451
109	0xbebaf19d	-0.3651246
110	0x3eeccde0	0.4625082
111	0xbea78763	-0.3272048
112	0x3ed40f9f	0.41418168
113	0x3eb1f326	0.3475582
114	0xbd951822	-0.072799936
115	0xbe969ac1	-0.29414943
116	0x3e5a4093	0.21313696
117	0x3ef971ed	0.4871973
118	0x3d59f2c4	0.053210035
119	0x3e211d6c	0.1573388
120	0xbe0dc35d	-0.13844056
121	0xbde66f96	-0.11251752
122	0xbed316a4	-0.4122821
123	0x3dfd8672	0.12379159
124	0x3dd228be	0.10261677
125	0xbdbc9ba6	-0.09209375
126	0x3eb4c723	0.3530818
127	0x3dd4350f	0.103616826
128	0x3e30c65b	0.17263167
129	0x3c99f607	0.018794073
130	0xbd02092d	-0.031747032
131	0x3e23bb27	0.15989362
132	0xbe8bc701	-0.27300265
133	0x3e8c7564	0.27433312
134	0x3e13a3b7	0.14417921
135	0x3e727601	0.23677827
136	0x3e0fa9a0	0.1402955
137	0xbe8f5a0b	-0.27998385
138	0xbe6af2dd	-0.22944207
139	0xbbfd6411	-0.007732876
140	0x3ef544eb	0.47904143
141	0x3da77c17	0.08177965
142	0x3db8c6f6	0.09022324
143	0x3d546a61	0.051859263
144	0xbd560aed	-0.052256513
145	0x3cecb319	0.028893994
146	0xbe4fdd03	-0.20299153
147	0xbe1d072c	-0.15334767
148	0x3dec3814	0.115341336
149	0x3e5a4ba4	0.21317917
150	0xbea234bc	-0.31680858
151	0xbdbb49d5	-0.09144942
152	0xbea6d6e4	-0.32585824
153	0xbecce94a	-0.40021735
154	0xbeb5f557	-0.35538742
155	0xbdba860a	-0.09107597
156	0x3dd56e3e	0.10421418
157	0xbe3f7bf5	-0.1869963
158	0x3e9b141a	0.30288774
159	0x3e1705c9	0.147483
160	0x3e3e9594	0.18611747
161	0xbdff0380	-0.124518394
162	0xbeaa88be	-0.3330745
163	0x3c912380	0.017717123
164	0xbdbc9279	-0.09207625
165	0x3e12126f	0.14264844
166	0x3d3079cb	0.0430849
167	0xbd6126c9	-0.05496863
168	0xbe0f9a52	-0.14023712
169	0x3dba44f5	0.09095184
170	0x3d8c83b5	0.068610586
171	0xbe31b7fb	-0.17355339
172	0x3e31df5f	0.17370366
173	0xbe3eccb5	-0.18632777
174	0x3d4f380d	0.050590564
175	0x3d627155	0.055283863
176	0x3e3ee1fc	0.18640894
177	0x3ecf1e24	0.40452683
178	0xbee39184	-0.44446957
179	0xbe22d4fb	-0.15901558
180	0x3e827134	0.25476992
181	0x3f0d2dd0	0.5514803
182	0xbd80436e	-0.06262861
183	0xbe5e0981	-0.21683313
184	0xbd9d53db	-0.0768201
185	0xbef6f413	-0.4823309
186	0xbebf89d0	-0.3740983
187	0x3d4a0fbf	0.049331423
188	0x3eacc146	0.33741206
189	0xbece59c7	-0.4030287
190	0x3e87af44	0.26500905
191	0xbdadb552	-0.0848185
192	0x3ee4f826	0.44720572
193	0x3ed07d6a	0.40720683
194	0x3da1aa22	0.078937784
195	0xbe32c67c	-0.17458528
196	0x3def1768	0.11674386
197	0x3dcb0382	0.099127784
198	0x3e829fe2	0.25512606
199	0xbdf01b78	-0.11723989
200	0xbe305617	-0.1722034
201	0xbdeeae0a	-0.11654289
202	0xbdfc2aa5	-0.12312821
203	0x3d9fc278	0.07800764
204	0x3ea14f19	0.3150566
205	0xbed2330a	-0.41054565
206	0x3ec91407	0.39273092
207	0xbdff13c5	-0.124549426
208	0x3ea4408d	0.32080498
209	0x3ebe56da	0.37175637
210	0xbe3b5fb3	-0.18298225
211	0x3d74579d	0.059653867
212	0x3eca140b	0.39468417
213	0x3f0791e1	0.5295697
214	0xbe650c44	-0.2236796
215	0x3caf20b8	0.021377906
216	0x3cc14f8f	0.023597507
217	0xbf0dbfc7	-0.55370754
218	0xbe9a24ba	-0.30106145
219	0x3d08613d	0.03329586
220	0xbe461dde	-0.19347331
221	0xbdba9a4f	-0.09111463
222	0x3e2d7871	0.16940476
223	0xbe5778bb	-0.21042149
224	0x3cfd8760	0.03094834
225	0x3dd8a8a6	0.10579042
226	0xbe5244ef	-0.20534109
227	0x3d9b77da	0.07591219
228	0x3ea3fb32	0.32027584
229	0x3e93534e	0.28774494
230	0xbef0decd	-0.47044984
231	0xbc866237	-0.016404254
232	0xbd91dec9	-0.07122571
233	0xbebe7c06	-0.37203997
234	0xbea6ce94	-0.32579482
235	0x3e23a703	0.15981679
236	0xbeac9130	-0.3370452
237	0xbe4fc430	-0.20289683
238	0x3d2de931	0.042458717
239	0xbda67e8e	-0.08129607
240	0x3f27f6b4	0.65610814
241	0x3f1e877f	0.619255
242	0xbda98166	-0.08276634
243	0x3c7e4a90	0.015520707
244	0x3ed185d8	0.40922427
245	0x3ee778c2	0.45209318
246	0x3e4f89bd	0.20267387
247	0xbe72c431	-0.23707654
248	0xbe822a45	-0.25422874
249	0xbf20c221	-0.6279622
250	0xbea7c53f	-0.32767674
251	0xbe091d44	-0.1339007
252	0xbd53cacb	-0.05170707
253	0xbe94d2a4	-0.29066956
254	0x3f166a3a	0.5875584
255	0xbeda877e	-0.42681497

bias_ih_l0 f4 [48]
0	0x3b3b4724	0.0028576339
1	0x3dc2a58f	0.09504234
2	0x3e941e0b	0.2892917
3	0x3f0dcddd	0.5539225
4	0x3d2843e2	0.041080363
5	0x3e59fdbe	0.21288201
6	0x3e0405b8	0.12892807
7	0x3db260bc	0.08709857
8	0xbd458031	-0.048217956
9	0x3e5256f6	0.20540985
10	0x3e9dd57d	0.3082694
11	0x3e90b868	0.2826569
12	0x3eadf6bc	0.33977306
13	0x3b4c74f5	0.0031197642
14	0x3e13e955	0.14444478
15	0x3da59104	0.080843
16	0xbbc55358	-0.0060218982
17	0xbe718b4d	-0.23588295
18	0x3d97cf70	0.074126124
19	0xbe35f499	-0.17769088
20	0xbe923ae0	-0.28560543
21	0xbe7756b8	-0.24154174
22	0xbef060c1	-0.46948817
23	0xbdb44a07	-0.08803182
24	0xbe945ebd	-0.2897853
25	0xbda24a68	-0.07924348
26	0xbda81b7c	-0.08208367
27	0xbeb8e9a5	-0.36115757
28	0xbd8d3201	-0.06894303
29	0xbddedfc9	-0.108825274
30	0x3bb1d530	0.0054270253
31	0xbcc4e744	-0.024036057
32	0x3e95f284	0.29286587
33	0x3e83965e	0.2570066
34	0xbebc979f	-0.36834428
35	0xbcbd66ac	-0.023120247
36	0x3ec51a2f	0.3849654
37	0x3ec4dcdf	0.3844976
38	0x3dbb4c0a	0.09145363
39	0xbe548ff4	-0.20758039
40	0xbe6ca2c3	-0.23108964
41	0x3be10202	0.0068666944
42	0xbe0c631f	-0.13709687
43	0xbe17dcaa	-0.1483027
44	0x37859710	1.592518e-05
45	0xbe4f627e	-0.20252416
46	0x3e166c05	0.14689644
47	0xbe999518	-0.29996562

bias_hh_l0 f4 [48]
0	0x3d28a1d2	0.04116995
1	0xbddf9e48	-0.10918862
2	0x3d8d2018	0.06890887
3	0x3ef334a5	0.47501102
4	0x3e1b4cb5	0.1516598
5	0xbe29b412	-0.16572598
6	0x3dbdd56b	0.09269222
7	0x3e0ddb94	0.13853294
8	0x3d156cc0	0.036480665
9	0x3ee84399	0.45364073
10	0x3e6f975a	0.2339758
11	0x3efee5c8	0.49784684
12	0x3e7ea7e5	0.24868734
13	0x3d111362	0.035418876
14	0x3eb269a6	0.34846228
15	0x3dc25b5c	0.09490082
16	0xbd33b8c7	-0.04387739
17	0xbec5f348	-0.3866217
18	0x3c06bc22	0.008223565
19	0xbee5c371	-0.44875672
20	0xbd9977aa	-0.07493527
21	0xbef30427	-0.47464105
22	0xbf32cea1	-0.6984654
23	0x3d4cb181	0.04997397
24	0xbe39eca4	-0.18156677
25	0xbea42d85	-0.3206598
26	0xbdbc00c9	-0.09179837
27	0xbe844076	-0.2583043
28	0xbe84d109	-0.2594073
29	0xbebbcf96	-0.36681813
30	0xbea189d7	-0.31550476
31	0x3d861296	0.06546514
32	0xbb0a0751	-0.002106149
33	0x3e2712d3	0.16315775
34	0xbe9a7a59	-0.3017147
35	0xbe586b92	-0.21134785
36	0x3ea7af94	0.32751143
37	0x3e02f520	0.1278882
38	0x3e9f9dc6	0.3117506
39	0xbde6848c	-0.1125575
40	0xbea232cb	-0.31679377
41	0xbee05886	-0.43817538
42	0xbebb671c	-0.36602104
43	0xbd86a40f	-0.065742604
44	0xbe5aabff	-0.21354674
45	0x3de51c06	0.11186986
46	0x3e4829e5	0.19547231
47	0x3dd3198a	0.103076056

weight f4 [2, 16]
0	0xbd4f6cd0	-0.05064088
1	0xbe3d0388	-0.18458378
2	0x3e0fc57c	0.14040178
3	0xbe03b19c	-0.12860721
4	0x3b92d580	0.0044810176
5	0xbe5ddd48	-0.21666443
6	0xbc951a50	-0.018201023
7	0xbdb0b334	-0.0862793
8	0xbae1b000	-0.001721859
9	0x3ba2c040	0.0049667656
10	0x3ba94600	0.0051658154
11	0xbd25be58	-0.04046473
12	0xbe547036	-0.2074593
13	0x3d7010c0	0.058609724
14	0xbe73f87a	-0.23825255
15	0xbe310f92	-0.17291096
16	0x3e8f7b6f	0.2802386
17	0x3ecd9a8f	0.4015698
18	0xbeee4756	-0.465388
19	0xbe9b850f	-0.30374953
20	0x3e9e0f2a	0.30870944
21	0x3e5b71fa	0.21430197
22	0x3eb2028d	0.3476757
23	0xbef60ba3	-0.48055753
24	0xbf07b57b	-0.5301129
25	0xbe785024	-0.24249321
26	0xbed21bba	-0.4103678
27	0xbeeaebf2	-0.45883137
28	0xbed15cd4	-0.40891135
29	0xbe8cefe7	-0.2752678
30	0x3ee5660a	0.44804412
31	0xbee3e36f	-0.44509456

bias f4 [2]
0	0xbdbcc4d0	-0.092172265
1	0x3e588327	0.2114378
