DATA/final_output/mortality/MyVariableRNN.pth (torch_old, 154046 bytes, 8 tensors)

weight f4 [32, 1043]
00000000: e6a4 d43d 4c5c fe3e 548b ce3e 45f2 51bd
00000010: 5379 883d d728 473b 94a9 2fbd d2f4 d7bc
00000020: 374d af3d 6d6e 8b3d 5a8f a4bd 79bb 44bc
00000030: a30d 68bd eba0 f4bd 7b9e 27be 4931 febc
00000040: 3e3f 00bd e478 e2bd 56f6 7dbd 93f7 51be
00000050: bb9d 103e 3df1 f43c 6be1 44be 9454 153d
00000060: d1ac 56bc 041b 823d ce8a 15be 139c 3dbe
00000070: a81c 3fbd 7e39 033d d4bf 013e 5b2c 043d
00000080: 7a78 31bf 232a 34bc f310 a33d ba11 943c
00000090: 895d 613c 492c 9a3e 9df2 d0bc 2e29 163e
000000a0: 0a37 b0bc 95ce 883d 0f0a 9bbd de19 bdbd
000000b0: 6706 37bd cfc0 2abe 7164 6d3d c3b2 71bc
000000c0: 561a d8bd dc81 26bb b4dd 89bd d297 3abd
000000d0: c0b6 dcbc 1414 aabc 6e19 e83d e3ab 99bd
000000e0: 4870 61bd 1b84 fabd e1a5 14be 969a f6bc
000000f0: 1ebf 4c3d 2247 8c3d 617e 14be 3c54 05bd
00000100: 78f8 f1bc 4da3 92bd 76c9 babd a694 29bd
00000110: 6234 51bd eb10 97bd a307 773d 8add 8d3d
00000120: 8317 8fbd caf1 4d3c fda8 1fbd ad4b a53e
00000130: de98 113b f6a6 c9bd e91a 4c3d c1b9 a9bd
00000140: 39ed edbd dc3f 8b3d 3ff8 aebd 6e26 163d
00000150: 350c 75bd bb43 193e 9602 533d bb0f 3b3d
00000160: 22df 0b3c 965f c13c 4791 a53e f572 0abf
00000170: bf59 083e 941b 7cba ff23 f9bb c267 61bd
00000180: 21c0 c33c 89da c0ba 49d5 05be d13c e53d
00000190: a776 bc3d d5ff 243e 9354 1abd 1779 eabc
000001a0: ef27 01be 19a3 ef3e 66b6 593c f470 943c
000001b0: 25f6 e13d b5db df3d 359a 013e fe74 3ebd
000001c0: 62cb 06be e439 1cbd 2b50 3f3d dfbc 8dbc
000001d0: bafc db3e 18bd 9cbe 1929 81bd a4b9 4dbd
000001e0: cf84 e13d 72d3 f83d 1dc2 fcbd 66e2 9b3e
000001f0: c75e 7fbd 5546 d6bd e2e0 56bd 3904 2cbe
00000200: 0afd 1c3d a2ba a1be afd8 ddbd 17a8 eb3c
00000210: 3982 28be 5188 91bd 2cb0 803c c8ff 3dbe
00000220: 4944 23bb a34c d2bc cfca 1f3e 731e 233d
00000230: a7ed 4a3e a7b7 173d 51c1 4ebc 35b8 c9bc
00000240: 2d1a f83d 0b79 76be 1f8d eebc 50a0 183d
00000250: c489 d1bd 28ff f13e ddd5 9a3b 3df7 103e
00000260: 36c9 ffbd 0ca7 9abd e8cc 05bc ebf8 4e3d
00000270: 949c 073d dd58 b73d bb42 043e 45cd 933e
00000280: ede5 b03c f064 653d d60b 3fbe fdae 61bd
00000290: aca2 993e 1057 933e 9efa cbbe bb1f f7bc
000002a0: d066 c0bd 9e7e 15be b777 ca3e 46a4 efbd
000002b0: 2011 123d 6d1f a0bc 7287 923d 9bfe 883e
000002c0: f545 30bb 3bd2 373e 7922 713e 925e 9cbd
000002d0: bdfd 6fbe c564 fabd 35b8 403d 36ed 183d
000002e0: 6961 a9bd e6e6 ca3d 2e33 acbd 2a11 ecbd
000002f0: df4f 06bd e3b0 5a3d 9be9 ad3d 559b 89bd
00000300: 6dd4 003e c370 bcbd 28b9 063e 46e9 de3d
00000310: 0eec cabd 9253 e43d 50d3 e63d 2d21 293d
00000320: 6429 113c 30c2 043d 0ac3 3ebd ce56 12be
00000330: a991 ccbc 3c20 c3bc 5ea7 5f3c 0176 843e
00000340: 23c4 173c 854f 0cbe 4c46 27bd 24f5 ee3d
00000350: 7597 6e3e 354d 3bbd 44d8 ba3d 6c79 933d
00000360: adde 073f 00a7 d4bc 4312 93bd 42ec 82bc
00000370: bad2 44be fa7b d0bd 2b56 fe3e 233c e7be
00000380: df59 863e a6c0 153e 9209 b7be bb8c 4fbd
00000390: 9eda 06bf 14b6 d3be 305a 8c3e 203f 823d
000003a0: 36e9 0c3d 428d 573c e0ad d6bd 0b72 cfbc
000003b0: 3014 d63b 553a a53e fa52 923d 67ac a8be
000003c0: 16a5 b43d e41c 9c3d 9105 6b3c a9b6 61be
000003d0: aead 673e 297e 77be 2b14 ea3c 54d8 b23d
000003e0: ea9e b0bc 3a51 273d a7cd 2a3d 8b4e 7e3b
000003f0: cbf7 8f3e e60a cebd 13e6 253d 6239 7e3e
0.103830144 0.49679792 0.40340674 -0.051256437 0.06663766 0.0030389333 -0.04288633 -0.026361857
0.085596494 0.068081714 -0.08035155 -0.012007588 -0.05665363 -0.11944755 -0.16369049 -0.03102936
-0.031310312 -0.11058214 -0.062002502 -0.20504598 0.1412267 0.029900188 -0.19226615 0.036457613
-0.013102726 0.06352809 -0.14603731 -0.18516569 -0.046658188 0.03203725 0.12670833 0.032268863
-0.6932446 -0.010996374 0.07962217 0.018074859 0.013755211 0.30111912 -0.025506312 0.14664146
-0.02151062 0.066800274 -0.07570278 -0.092334494 -0.04468384 -0.16675113 0.057957117 -0.014752093
-0.10551898 -0.0025406992 -0.0673174 -0.045554943 -0.02694261 -0.020761527 0.11332975 -0.07503488
-0.05503872 -0.12232228 -0.14516403 -0.03010301 0.04998695 0.06849505 -0.14501335 -0.032551035
-0.029537424 -0.071600534 -0.09120457 -0.041401528 -0.051075347 -0.07376274 0.060310017 0.06927021
-0.069869064 0.012569854 -0.03897952 0.322843 0.002221636 -0.098462984 0.04983035 -0.08287383
-0.11617512 0.067992896 -0.08543443 0.036657743 -0.059826095 0.14967243 0.051516138 0.0456693
0.008537086 0.02360515 0.323374 -0.5408166 0.13315485 -0.00096171466 -0.007603168 -0.05503059
0.023895325 -0.0014713566 -0.13069643 0.111932404 0.09202319 0.16113217 -0.037678313 -0.028622193
-0.1261289 0.4680412 0.013288116 0.018120266 0.110332765 0.10930578 0.12656482 -0.04649829
-0.13163522 -0.038141146 0.046707314 -0.017301975 0.42966253 -0.30613017 -0.06306667 -0.05022587
0.11011659 0.12149705 -0.12341712 0.30446166 -0.062346246 -0.104626335 -0.05246056 -0.16798486
0.038327254 -0.31587702 -0.10832345 0.028766675 -0.16455926 -0.071060784 0.015709005 -0.18554604
-0.0024912527 -0.025671309 0.15604709 0.03982396 0.1981722 0.03704038 -0.012619332 -0.02462397
0.12114368 -0.24069612 -0.029120026 0.03726226 -0.10231355 0.4726498 0.0047252015 0.14156814
-0.1248955 -0.07551393 -0.008166529 0.050530355 0.03310831 0.08952496 0.1291608 0.28867546
0.021594012 0.056004465 -0.18656859 -0.055098522 0.3000692 0.2877736 -0.39839643 -0.030166497
-0.0939461 -0.14599082 0.3954446 -0.117012545 0.035660863 -0.019546235 0.071547404 0.2675675
-0.0026897166 0.1795129 0.23548307 -0.07635225 -0.23436637 -0.122262515 0.047050674 0.037335597
-0.08270533 0.09907322 -0.08408199 -0.11526711 -0.032791015 0.05339135 0.08491822 -0.0671908
0.12581034 -0.09201195 0.13156569 0.10884337 -0.09908305 0.11148752 0.112707734 0.041291405
0.008859966 0.032411754 -0.046572722 -0.14290926 -0.0249718 -0.023819081 0.013650743 0.2587128
0.009263071 -0.1370221 -0.040838525 0.116678506 0.23299964 -0.045727927 0.09123281 0.07200894
0.5307415 -0.025958538 -0.071812175 -0.015981797 -0.19221011 -0.10179897 0.49675116 -0.45163068
0.2624044 0.14624271 -0.3574949 -0.05067132 -0.52677333 -0.41349852 0.27412558 0.063596964
0.034402095 0.013156237 -0.10482383 -0.025322935 0.0065331683 0.32271066 0.07144733 -0.32944033
0.0882055 0.07622698 0.014344589 -0.22042336 0.22624847 -0.2416922 0.02857407 0.087326676
-0.021560151 0.040848948 0.04170003 0.003880414 0.2811874 -0.100606725 0.04050262 0.24826577

bias f4 [32]
00000000: 6224 d43d e44a 0abe 799d 67be 6a20 3dbe
00000010: 1dad 76be 8b87 1e3e 4ad9 83be cbd7 813e
00000020: 554b 5c3e b171 813e 0e1e 9a3e 2b71 77be
00000030: 71cc 41be c07b 8cbe 1f9a c0bd 4487 6f3e
00000040: 3eb5 7bbe 2239 0ebe 79a1 f93d 9eec fb3d
00000050: f814 ec3d 3ffe 87bd 808d bd3d 26ee 2e3e
00000060: 4494 67be 84ce 453e 7950 6dbe f8cf 3a3e
00000070: d4b9 8a3e 53b3 acbd 49f9 5c3e c219 b7be
0.10358502 -0.13505131 -0.22618665 -0.18469396 -0.24089475 0.15481393 -0.25751716 0.2535995
0.21513112 0.25282052 0.30101055 -0.24164264 -0.18925644 -0.27438164 -0.09404396 0.23391443
-0.24580857 -0.13888982 0.121890016 0.123009905 0.11527437 -0.066402905 0.092555046 0.17083034
-0.22615153 0.1931706 -0.23175229 0.18243396 0.270949 -0.08432641 0.2157947 -0.3576184

weight_ih_l0 f4 [48, 32]
00000000: 2b28 29be ab62 43bf 3025 35bd f841 a23e
00000010: 7c6d ecbe 2adc 893e 53f1 463e 9e84 443e
00000020: 7f12 6ebe 00c1 a7be 122c 80bc 4e03 dfbd
00000030: 06cd 1b3d 636c 53bf 932d 4bbf 39e5 1ebf
00000040: 6bc4 19be 6f42 67bf 0f03 f03d 4c55 063f
00000050: d854 d93c 5469 14bd 83fd 3ebe 8de5 9f3b
00000060: 15b3 783e 13a2 e8be 6107 ff3e 9094 10bc
00000070: cfb1 8b3e 92f8 983e e021 633e 4708 0abf
00000080: c02d e63e ec2a 853e 6284 5dbe 2dfe f23b
00000090: 9620 b83d 9ce8 003f b4e5 2a3d 6927 d33d
000000a0: f06b 3a3d 6950 83be ea8e 3cbe f505 923e
000000b0: 5bad 02bf 9ed4 1e3e eea8 313e c474 85bd
000000c0: c759 90be 4369 00bf 121a 0c3f de9a 1b3f
000000d0: dbb1 883e 1f86 eb3d 6ea5 3c3f 2561 c03e
000000e0: 80f2 693e 4553 343f a6b9 5cbe 8857 5d3f
000000f0: a786 813e ac43 87bc f0c7 4f3e 0040 923e
00000100: bde1 2f3e eb88 a53e 743a c3bd 1a06 9dbe
00000110: 858a 393e e188 5c3f c2cd 1abe 5370 563e
00000120: b470 92bd 4ccf 8e3d 4691 2bbd ca1e c63d
00000130: a6f2 c7be 2830 06be be17 743e a7c6 b0be
00000140: 29a1 83be 8f46 28bf e614 083f 5352 043f
00000150: 9f1c 933d 5248 44bc 4a51 3b3f d450 963e
00000160: a980 45be c8dd 603f 9e63 60bf 37fa 9e3f
00000170: f275 8c3e 39a5 86be 6b31 413e ea07 933d
00000180: 4a0a edbe 04c3 a8be 619e c2be a7d7 fdbd
00000190: 8469 efbe 537a b73e 344d 8abe df0f 233e
000001a0: 5a36 953e f466 80be 975f dfbe dd57 b7be
000001b0: d54a 13bf 81ac c8be 3bde 32bf e412 edbe
000001c0: e8e5 cdbe c9d5 69bf 48d8 b13e bbf3 2a3f
000001d0: 571c 133e c583 fbbe b411 c3bb c0cd e23d
000001e0: d3ef 253f 95a5 35bd 2400 433e cbbe 833e
000001f0: 523b a53e acfe 16be b096 ba3e d961 b5be
00000200: cf7e 0a3f dd81 a4bd b5e3 b8be 98ea 0abe
00000210: 771a 01be 4a21 7c3e ea46 e7bc 74ae a43e
00000220: db30 213e ac1e 74be 66d4 05bf 32d3 833e
00000230: afcd 33bf d07d f73d fc47 68be 51e5 40be
00000240: 6c52 ebbc 79a5 20bf ad82 403f 31e1 043e
00000250: 6061 60bd 8f3f 843e 6051 303f 022a 023f
00000260: 124b 2fbe fa7e ba3e 9d05 f4be f0ee ac3f
00000270: 1630 963e f8c8 2abe 0341 4b3e 4b31 6c3e
00000280: 5486 c2be e2e0 a2be bcbb b83e 8cb8 d93e
00000290: 1379 dcbe f45a 913d 649a 853e d257 61be
000002a0: 80d4 6cbe 7967 d8be 8f7e afbb 38e8 da3e
000002b0: 69ad 093e ed0c d8be 1b49 2fbf 0389 1abf
000002c0: cc8c 063e 9953 88bc 0726 93be 37ce d0bc
000002d0: b7fe a4be 75c0 c73e d5ab 15bf f74c b33d
000002e0: 4baa 333f 8396 b1be 9bc3 e73e f78b e9be
000002f0: ed9b a5be c27f 2a3e 322a 94be e58d b6be
00000300: 6052 07bf eb1c cfbd 8285 a73e cff2 89bd
00000310: f31e 02bf e528 433d 5c4b 47bf 26db 36be
00000320: d36b aa3e cae5 fabd cde5 f03e df5b 1abe
00000330: f4f3 d3be 6c05 41be 2bc5 a13e c260 f0bc
00000340: 2187 99be 92b2 83be e108 1ebe eda1 4f3e
00000350: ac6c cd3e 3681 8f3d 9382 463f 6bee c73c
00000360: 91c4 273f f01d 1c3e 0e67 833d 0776 04be
00000370: d7f1 313e 1c32 833b 8463 a03e 6070 91be
00000380: 316d aa3d 6a95 26be ec33 8bbe fe4b c1bd
00000390: 38da 3bbe e99f 733f 7e41 0abf b8a5 673f
000003a0: d471 393c 6928 b3be 58d8 77be 3665 00bf
000003b0: cafc 13bf 9e37 94bd 93f0 30be b963 f1bd
000003c0: 3020 d2be f7da 8cbf 06f5 853d 200f b83e
000003d0: aacd 353f 04be 4dbf ce7a 8e3f 19ba cabd
000003e0: 7571 ccbd b695 7c3f 5423 ddbe fdce 163f
000003f0: d1c7 07bd caa8 1fbe 6ab2 253f 5091 843d
-0.16519229 -0.7632243 -0.044224918 0.31690955 -0.4617728 0.26925784 0.19427995 0.19191214
-0.23249243 -0.32764435 -0.015646014 -0.10889302 0.038037322 -0.8258726 -0.79366416 -0.62068516
-0.15016334 -0.90335745 0.117193334 0.524739 0.026529714 -0.03623326 -0.18651395 0.0048796595
0.24287064 -0.45436153 0.49810317 -0.008824483 0.27284095 0.29877144 0.22180891 -0.5391888
0.4495678 0.2600931 -0.21632531 0.007415554 0.0899059 0.50354934 0.04172297 0.10310251
0.045513093 -0.25647286 -0.18413892 0.2852017 -0.5104577 0.15510795 0.17349598 -0.06516412
-0.28193495 -0.50160617 0.5472728 0.60783184 0.26698193 0.11500191 0.73689926 0.37574115
0.22846413 0.7043956 -0.21555194 0.8646169 0.25298044 -0.01651176 0.20291114 0.28564453
0.17175956 0.32331023 -0.095326334 -0.30668718 0.18119247 0.8614636 -0.15117553 0.20941286
-0.07150403 0.069731325 -0.04188659 0.09673841 -0.39052314 -0.13104308 0.23837182 -0.3452656
-0.25708893 -0.65732664 0.5315689 0.51688117 0.071831934 -0.011980133 0.7317091 0.29358542
-0.19287361 0.8783841 -0.87652004 1.242011 0.27433735 -0.2629793 0.18866508 0.07179244
-0.46296912 -0.32961285 -0.3801146 -0.12394648 -0.4676019 0.35835513 -0.27012026 0.15924023
0.2914303 -0.25078547 -0.43627617 -0.35809222 -0.5753606 -0.3919411 -0.69870347 -0.46303475
-0.40214467 -0.91341835 0.34735322 0.66778153 0.1436628 -0.4912397 -0.005953038 0.110744
0.6481907 -0.044347364 0.19043022 0.257315 0.3227182 -0.14745587 0.3644309 -0.35426214
0.54099745 -0.08032582 -0.36111227 -0.13566053 -0.12607752 0.24622074 -0.028232057 0.32164347
0.15741293 -0.23839825 -0.5227722 0.25747067 -0.70235723 0.12084544 -0.2268371 -0.18837477
-0.028725825 -0.6275249 0.75199395 0.12976529 -0.054780364 0.2582974 0.6887417 0.5084535
-0.17118481 0.36425 -0.47660533 1.3510418 0.29333562 -0.16678226 0.19849019 0.23065679
-0.3799311 -0.31812197 0.3608073 0.4252361 -0.43061122 0.07097426 0.26094353 -0.22006157
-0.23127937 -0.42266443 -0.005355663 0.42755294 0.13445057 -0.42197362 -0.68470925 -0.60365313
0.13139647 -0.016641425 -0.2873995 -0.025488956 -0.32225582 0.3901402 -0.5846532 0.08754914
0.7018172 -0.34685144 0.45266423 -0.45614597 -0.32345524 0.16650298 -0.28938442 -0.35655132
-0.5286007 -0.101129375 0.32719046 -0.06735765 -0.50828475 0.047646422 -0.77849364 -0.17857036
0.33285388 -0.1225086 0.47050324 -0.15074109 -0.4139706 -0.18849725 0.3159574 -0.029343013
-0.29985908 -0.25722176 -0.15433075 0.20276614 0.40121973 0.07007067 0.7754299 0.024405679
0.6553431 0.15245795 0.064161405 -0.12935649 0.17377411 0.0040037762 0.31325924 -0.28406048
0.08321608 -0.16267934 -0.2718805 -0.094383225 -0.18344963 0.9516588 -0.54006183 0.9048724
0.011318643 -0.34991768 -0.24203622 -0.50154436 -0.578076 -0.07237171 -0.17279272 -0.11786599
-0.41040182 -1.1004323 0.06540875 0.3594904 0.71016943 -0.80368066 1.1131227 -0.098987766
-0.09982578 0.9866594 -0.43191016 0.5890959 -0.033149544 -0.15591732 0.64725363 0.06473029

weight_hh_l0 f4 [48, 16]
00000000: 8a1c 343e 9ed8 b73d 948c 75be faab 01bf
00000010: ead2 b93e f128 873e 235c f6be cdf3 7cbe
00000020: 425a 34bf 6940 95be bb70 ffbe 1d6f 983e
00000030: b4c3 29be 101a 3cbf c0dd 8e3e 23d4 f1be
00000040: d0f1 133e 8cdb 163e d59e 473d 760a 77be
00000050: b63d 5639 269b 0e3e 554c 5c3f 0a5c 1f3d
00000060: 5c39 a73e 6be7 89be 5915 8ebe 6f6d b0be
00000070: f393 883f 39b1 4ebf 1ed2 9cbd 590c c2be
00000080: 610a debc 4efd 6f3e 3c3f 133e 07f1 adbd
00000090: 0b51 72bd 58f8 1f3e d022 6a3f b3a1 16bc
000000a0: c6cf d23e 5f11 6f3c f423 0cbe 18df f43d
000000b0: d19f 813f 61dd 13bf f27d 3fbc 438c a6be
000000c0: 6634 053f 75b6 7c3c 3a41 e1be 6a05 44be
000000d0: 00fe 043f 15a3 013f ea1c 11bf d93d 5cbe
000000e0: 0646 57bf beeb 1fbf fe49 12bf c9ea 143e
000000f0: 37ce 31be 1614 e7be 1561 ac3e e1a9 13be
00000100: 13ee ccbd bf7a 843d 8641 a63e 5c83 adbe
00000110: 4c2f 583d 7601 9a3d 68cc 463f 316d 0e3b
00000120: 4f7f a83e 9d9f 7abe fbff eabc 1fbf 203e
00000130: 82c0 8b3f 5ea5 2fbf f718 d5bc d3ce 5f3d
00000140: 0a65 9d3e 2e0d fb3d ce44 223a bea3 10bf
00000150: 45bd 933e 3c92 b6bb fc69 8dbf 950b 793c
00000160: 5548 9fbe e95d a7bd eadf 7c3d fdcf 003e
00000170: 8b44 f23e f26d 31be 0321 9a3d c5ba 20bf
00000180: 2da3 c73e 88c8 593f 13fc 98bf 8509 73be
00000190: ebdc 993f 9d50 ba3f 7262 18bf 72ce 0dbf
000001a0: 45fb 8abf aa8b a2bf 5441 80bf 1fb8 3b3f
000001b0: 8772 d63e 782a a8be da71 953e ca8a a1be
000001c0: 36e2 003f 9954 af3e 13de d83c e0aa b53d
000001d0: 3b2f 023e c849 153f fdbc 953e fae8 403e
000001e0: 7b79 b03d fcce 10be 2ea2 dabe fdc5 3e3e
000001f0: 87c8 b53e 5d14 9dbc 6a27 993e e9a0 9d3e
00000200: d600 5e3e 4750 433d 21f3 03bd 7cdf 853d
00000210: c2cf 92be b300 aa3e b97e 2a3f 862e 523e
00000220: 3b0b 653e 8c3f 9dbe a887 55be 05c0 02be
00000230: 13ca a03f 6dcd 84be f559 8d3d f54c 0ebe
00000240: 3d4b 7ebd bc38 26bd 8276 7ebe 6c5c 15bf
00000250: a3a9 093e 722c 1cbc b22f 8bbf ab33 78bd
00000260: bd6a e0be 45b5 81be 4391 83be 759f 7e3e
00000270: e6a0 223f 0bac f3be f8cb 103f e8b2 8dbe
00000280: 15df 273d 817e babe ec81 71be e62c e33c
00000290: 3b30 30be dfe0 f13c 2d7e 0abd a285 163e
000002a0: da2b 9bbd c492 363e 3fb2 593e c13f 0fbe
000002b0: 8f90 043e c8c8 a93b a171 01bd 743c 973e
000002c0: 5b5a 823e e25c 7c3d 87b0 f3be 7cb4 0bbf
000002d0: 4859 8c3e 9675 0b3f 178a 61be 630e 63be
000002e0: 4638 45be ab25 f7be 4c9a c6be dbf7 be3d
000002f0: 9ce5 b73e 3b9d 6fbe d8be 863e 3ac2 8fbe
00000300: 9296 183f 7f26 663f 678d 86be 2a0b ae3e
00000310: 09c7 ac3e 27a9 063f d2b8 a6be c129 163d
00000320: d92b 01be e110 24bf 230c 2abf 889f 213f
00000330: 8786 5c3f e07e d0be e307 443f 43f7 4d3e
00000340: 6907 1b3f 9892 023d a8af d8bc 00a8 39bd
00000350: 2b9c 8b3e 5aa9 6f3f 86e7 a2be 860b b73e
00000360: d0ce 643d 5fc4 7bbf 55b8 55bf 623a 353f
00000370: 6904 01be ef39 e63d db4e a13e 22ad 21bd
00000380: 0fe5 143e 20af ee3e cebd 1dbf 737a 1fbe
00000390: c8c8 483f aa37 173f 99e1 87bf 6429 bebe
000003a0: 559c 43bf c308 94bf 216a 88bf c5a2 623f
000003b0: 3559 373e c944 35bf e171 753e 9aaa c7be
000003c0: fe04 073f 3523 d03e a5ba 943e a534 9f3e
000003d0: cab8 3a3e 3d0b 193f 9b06 193d 5377 683d
000003e0: 6c5f 97bc f057 47bf cad8 f4be aa1f d3bd
000003f0: 924d 513e bece 55bc 3e74 2fbd c7b3 a93d
0.17589012 0.08976863 -0.23979408 -0.5065304 0.36293727 0.26398423 -0.4811717 -0.24702378
-0.7045022 -0.29150704 -0.49890694 0.29772273 -0.16578561 -0.7347727 0.27903557 -0.4723216
0.14447713 0.14732188 0.04873546 -0.24125084 0.0002043162 0.13926372 0.86053973 0.038906135
0.3266095 -0.2693437 -0.27750662 -0.3445849 1.067015 -0.8073917 -0.07657264 -0.37900046
-0.027104558 0.23436472 0.14379591 -0.08493238 -0.05915932 0.1562208 0.9145937 -0.009193826
0.41174144 0.014591544 -0.1368559 0.11956614 1.0126897 -0.5775967 -0.011687743 -0.32528886
0.5203308 0.0154243605 -0.43995076 -0.1914269 0.51950073 0.5063947 -0.56684744 -0.21507968
-0.8409122 -0.6246909 -0.57144153 0.14542688 -0.17363821 -0.45132512 0.33667818 -0.14420272
-0.100063466 0.064687245 0.32471865 -0.33889282 0.05277948 0.0751981 0.7765565 0.0021732564
0.3290963 -0.2447495 -0.028686514 0.15697907 1.0918124 -0.68611705 -0.02601288 0.054640602
0.3074115 0.12258373 0.0006190062 -0.5649985 0.2885534 -0.0055716317 -1.1047969 0.015200515
-0.31109872 -0.08172209 0.06173698 0.12579341 0.4731792 -0.17327097 0.07525828 -0.6278499
0.3899168 0.8507161 -1.1951927 -0.237341 1.2020544 1.4555851 -0.59525216 -0.55393136
-1.0857931 -1.2698872 -1.0019937 0.7332782 0.41884252 -0.328449 0.29188424 -0.315512
0.5034517 0.3424423 0.02647308 0.088704824 0.1271333 0.58315706 0.2924575 0.18838874
0.086169206 -0.14141458 -0.42701858 0.18630214 0.35504553 -0.019174749 0.29912883 0.30786827
0.21680006 0.04768398 -0.032214288 0.06536767 -0.28674132 0.33203658 0.66599613 0.2052556
0.22367565 -0.30712545 -0.2085253 -0.12768562 1.2561668 -0.25937977 0.069019236 -0.13896544
-0.06208347 -0.04058145 -0.24849895 -0.5834415 0.13443618 -0.009532081 -1.087393 -0.06059615
-0.43831435 -0.2533361 -0.25696763 0.24865516 0.6352676 -0.47592196 0.5656123 -0.27675557
0.040984232 -0.3642464 -0.23584718 0.02773137 -0.17205898 0.029526172 -0.033811737 0.14699414
-0.075767234 0.17829424 0.21259402 -0.13989164 0.1294577 0.0051814057 -0.031602506 0.2953831
0.2545956 0.061612017 -0.47595617 -0.5457227 0.27411866 0.54476297 -0.22025333 -0.22173457
-0.19259748 -0.48270926 -0.38789594 0.093246184 0.35917366 -0.23399822 0.26317477 -0.2807787
0.5960475 0.8990249 -0.26279756 0.33992893 0.33745602 0.52601856 -0.32562882 0.036660913
-0.12614383 -0.64088255 -0.6642477 0.6313405 0.8614277 -0.40721798 0.76574534 0.20113854
0.6055818 0.031878084 -0.026450947 -0.045326233 0.27267584 0.93617785 -0.31817263 0.3575098
0.055861294 -0.98346514 -0.83484393 0.7079221 -0.12599339 0.11241519 0.31505474 -0.039471753
0.14540504 0.46617985 -0.61617744 -0.15574054 0.7843137 0.5906931 -1.0615722 -0.37140954
-0.7641042 -1.1565174 -1.0657388 0.88529617 0.17905124 -0.7080808 0.23969223 -0.38997346
0.5274199 0.4065186 0.29048648 0.31094852 0.18234554 0.59782773 0.037359815 0.05675442
-0.018478118 -0.77868557 -0.47821647 -0.10308774 0.20439747 -0.013049779 -0.042835467 0.08286243

bias_ih_l0 f4 [48]
00000000: 6c63 5bbe 69b3 bd3d f0e4 933e d338 d73e
00000010: 0bf4 2d3e a4c9 733e f1c0 e23d 3718 2d3e
00000020: ed46 a43c 0c81 2d3e a46e 313e 3229 8a3e
00000030: 9ba8 2a3e 92e9 2cbe 1c1b a03d 34bd 9abd
00000040: bd2a 0ebe 79d5 a1be 544d d63d e83d f3bc
00000050: 4133 9bbe ebf8 f4be 8472 8fbe d3a0 8ebd
00000060: 01a5 63be 79e9 88be f915 7bbe 1bca f7be
00000070: ca2b 93be 702e cbbd 4f37 e3bd cb40 e53d
00000080: db41 9d3e 9684 8a3e 0dc8 e5be d3f4 f8bc
00000090: 8ee1 013f ab5b e23e 7e4d d23d d088 2abe
000000a0: d64c afbe 4aa6 84bd 7564 89bc d223 f5bd
000000b0: c9dc 0b3d 8f8d 99be d4a5 4a3e 261e aabe
-0.21424645 0.092627354 0.28885603 0.4203554 0.16987626 0.23807389 0.11071957 0.16903768
0.020053351 0.16943759 0.17327362 0.26984555 0.1666588 -0.16885975 0.07817671 -0.07555619
-0.13883491 -0.3160818 0.10463968 -0.029692605 -0.3031254 -0.4784616 -0.28017056 -0.069642685
-0.22230913 -0.26740626 -0.245201 -0.48396382 -0.28744346 -0.099209666 -0.11094534 0.11193999
0.30714306 0.2705428 -0.4487919 -0.030390179 0.50734794 0.44210562 0.10268687 -0.16653752
-0.3423831 -0.064770296 -0.016771534 -0.11969723 0.034146104 -0.29990813 0.19789821 -0.33226126

bias_hh_l0 f4 [48]
00000000: 1728 34be 6590 e4bd f539 8c3d a0d1 ae3e
00000010: 0498 8f3e 2ee8 0fbe d98a 983d a3c3 613e
00000020: 0988 d63d 86d8 d53e 44b6 ca3d 1356 f83e
00000030: 59c6 9a3d 8bd6 0bbe 827b 903e cae5 7bbd
00000040: 57ee 34be 1e03 efbe 6aab 1e3d e8fc 99be
00000050: 8059 bdbd ed28 36bf 9c57 02bf dc01 8c3d
00000060: dca6 e9bd 4842 02bf 4384 82be ec20 c3be
00000070: 3fb0 f4be 81e3 b6be ff1e ddbe a446 4e3e
00000080: 5b11 6a3d 9956 a43c a01d 98be d539 6abe
00000090: 793c ac3e 206e c33e 2ea5 b73e b8fe 67bd
000000a0: 6467 a4be 36ac 22bf d6a8 a8be f136 3abd
000000b0: 6874 61be 9188 033e d386 973e 08c5 243e
-0.17593418 -0.111603536 0.06846992 0.34144306 0.28045666 -0.14053413 0.07448358 0.22047286
0.104751654 0.41766757 0.09898046 0.4850317 0.07557363 -0.1365606 0.2821923 -0.06149844
-0.17669044 -0.46682066 0.038737692 -0.30075765 -0.092455864 -0.711562 -0.5091493 0.06836292
-0.11408779 -0.5088239 -0.25491533 -0.38111055 -0.47790715 -0.35720447 -0.4318771 0.20144135
0.057145458 0.020060824 -0.29710102 -0.22873624 0.33639887 0.38169956 0.3586821 -0.056639403
-0.3211013 -0.63544023 -0.32941312 -0.045462552 -0.22017062 0.12845065 0.2959505 0.16090786

weight f4 [2, 16]
00000000: d06c 4fbd 8803 3dbe 7cc5 0f3e 9cb1 03be
00000010: 80d5 923b 48dd 5dbe 501a 95bc 34b3 b0bd
00000020: 00b0 e1ba 40c0 a23b 0046 a93b 58be 25bd
00000030: 3670 54be c010 703d 7af8 73be 920f 31be
00000040: 3667 cd3e 074d 5d3f 8be3 7bbf 3b1e 14bf
00000050: b30b 573f d706 303e b3e0 553f f4b1 9ebf
00000060: 6271 92bf a35c 38be ab9a ddbe 6055 8dbf
00000070: 3aed 03bf 623f 01bf c969 253f cfd8 44bf
-0.05064088 -0.18458378 0.14040178 -0.12860721 0.0044810176 -0.21666443 -0.018201023 -0.0862793
-0.001721859 0.0049667656 0.0051658154 -0.04046473 -0.2074593 0.058609724 -0.23825255 -0.17291096
0.40117806 0.8644566 -0.9839408 -0.5785863 0.84002227 0.17190109 0.8354599 -1.2398057
-1.1440852 -0.18004088 -0.43282065 -1.1041679 -0.51533854 -0.5048734 0.6461454 -0.76893324

bias f4 [2]
00000000: d0c4 bcbd ba97 3b40
-0.092172265 2.9311357
