DATA/final_output/LOS/MyVariableRNN_LOS.pth (torch_old, 152642 bytes, 8 tensors)

weight f4 [32, 1032]
000000 80 ba cb 3e 57 d0 4c 3e 72 6d 99 bd 0a 3c af bd
       0.39790726 0.2000135 -0.07491578 -0.085563734
000010 66 fb 13 bd a7 59 bf bc f7 e1 07 bc b6 58 81 bb
       -0.036128424 -0.02335818 -0.00829362 -0.0039473427
000020 35 4d 48 3e 87 ce 25 be 1a 81 cb bd e9 66 b0 bd
       0.19560702 -0.16192065 -0.099367335 -0.086133786
000030 5d 52 9b 3e 68 bd 76 bb 88 bd d1 3e f1 f8 44 bd
       0.30336276 -0.0037649516 0.40964913 -0.04808897
000040 3b 7f 13 3d a3 66 11 3e 3d fa 14 be 49 84 a6 3e
       0.03601001 0.14199309 -0.14548583 0.325228
000050 7e 22 63 3e f6 23 77 3e f6 2d c4 3e d6 cc 8d bd
       0.22181126 0.24134812 0.38316315 -0.06923835
000060 cf b8 69 be 89 47 9a be d5 3f 99 be 99 d2 a9 bd
       -0.22824405 -0.30132702 -0.29931512 -0.082921214
000070 c9 8b a2 be 11 75 3e 3f 5f 18 d9 bd 63 84 62 be
       -0.31747273 0.7439738 -0.106003515 -0.22120814
000080 ae 2c ef 3d bb c3 38 bd c5 4f 11 bf 44 cb 72 be
       0.11678444 -0.045108538 -0.56762344 -0.23710352
000090 66 e7 5f 3e 3d aa 9f be 1d b3 c2 be 77 c5 97 3e
       0.21865615 -0.3118457 -0.38027278 0.2964284
0000a0 c3 5c e2 bd 3f 02 bb bc c0 de 87 bd 49 fe 27 be
       -0.11052849 -0.02282822 -0.06634283 -0.16405596
0000b0 07 aa a8 3d 47 38 56 be cc c6 ca bd ff c9 1b be
       0.08235555 -0.20919906 -0.09901199 -0.15213774
0000c0 cf 1a 57 be b1 ad 99 be ce ec ec be 32 b3 77 bd
       -0.2100632 -0.3001533 -0.46274418 -0.06047363
0000d0 6e 57 8b be fd a3 00 3f 24 8f dc bd 4d 84 70 bc
       -0.2721514 0.50250226 -0.107694894 -0.01467998
0000e0 3c 84 71 3e 70 19 c8 3d 1c bd 49 3d da 58 87 bd
       0.235856 0.09770477 0.049252614 -0.06608744
0000f0 e6 e5 57 be 30 f9 35 be 61 35 2d be 33 f0 70 be
       -0.21083793 -0.17770839 -0.16914894 -0.23529129
000100 c9 16 9f 3e e6 39 d4 bd 7e 98 9d 3d 1d 38 5e be
       0.3107207 -0.10362606 0.07695101 -0.21701093
000110 12 ae d7 be 2b 81 0e 3f 16 d3 29 3e 9a d7 f7 be
       -0.42124993 0.55665845 0.16584429 -0.48406678
000120 bb b7 45 3e 7c 90 d6 bd 16 b5 47 be cf 37 4c 3e
       0.19308369 -0.10476777 -0.19502673 0.19943164
000130 a4 65 70 3d 9a 08 9c be 6f 64 1d 3e 75 5d c9 bd
       0.058690682 -0.30475312 0.15370344 -0.09832279
000140 c8 6a ac bb c4 50 85 be 92 fe ab bd c3 18 f2 3e
       -0.0052617528 -0.26038182 -0.08398165 0.47284517
000150 2d 36 be be f1 4f f6 3d ec 8f 9d 3e eb 09 da 3e
       -0.37150708 0.12026966 0.30773866 0.42585692
000160 fc 24 a8 3e 3a 28 09 bd c0 51 ea bd 2c 0e 67 be
       0.32840717 -0.03348563 -0.11441374 -0.22564
000170 90 a7 0f bf 9f 47 76 3e 03 cd 3d be d5 b0 90 3e
       -0.56115055 0.24050759 -0.18535237 0.28259912
000180 0b 8e 93 3e c8 f8 e5 be c8 15 36 be 68 7e 10 bd
       0.28819308 -0.44916368 -0.17781746 -0.0352768
000190 41 d5 09 be de 1c a7 be 47 cf 95 bd 7b 2a 85 be
       -0.13460256 -0.3263921 -0.07314926 -0.26008973
0001a0 b1 e7 07 3e d3 dd 45 be 20 6e f3 3d 69 af 0a bd
       0.13271977 -0.193229 0.11886239 -0.03385869
0001b0 37 88 05 3e 67 1e 85 3e 63 41 1e 3e 6b 0c 55 3f
       0.13040243 0.25999758 0.1545463 0.83222073
0001c0 3b 95 89 be 78 da d4 bd 8f ea 1f 3f 6a 97 8d be
       -0.26871666 -0.10393232 0.62467283 -0.27654582
0001d0 cf 5a ca be 64 0d 4a be 1d 5b 7d 3c e4 48 89 3e
       -0.39522406 -0.1973167 0.015463618 0.26813424
0001e0 5e 49 bf 3d f1 5b 46 be 43 f3 29 be 03 03 c5 3a
       0.093401656 -0.1937101 -0.16596703 0.0015030805
0001f0 9e 5d aa bc 43 33 4e 3d 89 28 82 bd d5 25 a8 be
       -0.020796593 0.050341856 -0.06355388 -0.32841364
000200 8b 08 ba be 31 f2 b7 bd c7 6a fe 3d e6 8f 2b be
       -0.36334643 -0.08981741 0.1242271 -0.16754112
000210 4d 05 95 be 0e 2e 69 be 5e 61 0a be 1d c0 f2 3d
       -0.29105607 -0.22771475 -0.13513705 0.11853049
000220 02 e8 86 3e 6b 07 b5 be 06 b3 a8 3d 32 2c 54 be
       0.26348883 -0.35357222 0.08237271 -0.20719984
000230 d5 c2 e4 be 2e 44 22 bd 7f 18 45 be 58 90 23 bd
       -0.44679895 -0.039615802 -0.19247626 -0.03993258
000240 10 86 ba bd 30 9a af 3e 8f 90 f2 3e 58 b4 bf be
       -0.09107602 0.34297323 0.47375914 -0.3744228
000250 c0 02 c4 3e f8 7c a8 be 53 c1 96 bd f1 fa 04 3e
       0.38283348 -0.32907844 -0.073610924 0.12986352
000260 21 d0 ca be 39 fe 51 be 30 14 02 be 50 e9 34 bd
       -0.39611915 -0.20507134 -0.12703013 -0.044167817
000270 96 e0 a1 bd 4e 4e f0 be 91 a7 43 be 76 6b 4b be
       -0.079041645 -0.46934742 -0.1910689 -0.19865212
000280 9d 31 67 3b 0f d8 93 bd 79 e0 5d bd 7a a6 85 bb
       0.0035277375 -0.07218944 -0.054169152 -0.0040786834
000290 36 3e 5b be 27 cc a7 3e e2 df bc be 25 8b 07 be
       -0.2141045 0.32772943 -0.3688956 -0.13236673
0002a0 64 c4 92 be 96 9c 94 3d 9e ef dd 3d c8 aa 9a bd
       -0.2866546 0.07256429 0.10836719 -0.07552105
0002b0 56 00 43 3e 1f ea f1 3d 80 2b 93 be e9 a4 80 be
       0.19043097 0.11812233 -0.28744125 -0.25125816
0002c0 9c 66 67 be a7 83 46 3e ea be 95 3e 3e eb 2a bf
       -0.22597736 0.19386159 0.29247218 -0.667652
0002d0 63 99 6e 3b 4b c3 11 bf 17 bd b4 bc 89 ac b2 bd
       0.0036407344 -0.5693862 -0.022062821 -0.08724315
0002e0 90 00 58 bd be 83 b1 be 92 aa 6b 3c d8 02 6d be
       -0.05273491 -0.34670824 0.014383929 -0.23145616
0002f0 5d 36 c1 bd 6b 87 ba bd d4 6c 9b be d9 a2 cb be
       -0.09434197 -0.0910786 -0.30356467 -0.3977268
000300 55 82 e9 3d 9c 17 c5 bd 68 e3 b1 bb e8 57 e6 3d
       0.11401812 -0.09623644 -0.0054287203 0.112472355
000310 3d db 99 3d 9b eb 11 3e 08 56 18 be eb c0 78 be
       0.075125195 0.14250033 -0.14876568 -0.24292342
000320 d2 2f 3a bd c1 ea cb bd e2 84 a0 be 64 80 14 bd
       -0.04545576 -0.09956885 -0.31351382 -0.036255255
000330 fb c2 25 3e 89 ca 35 3c 4e 18 5c 3d 47 4d b1 bd
       0.1618766 0.011095651 0.053734116 -0.086573176
000340 28 3d 03 be 5a 96 ca be 16 66 34 bd 5f c5 b2 3d
       -0.12816298 -0.39567834 -0.04404267 0.08729052
000350 0b dd 09 bd f6 1d 07 be 20 6a ed bd a6 ed d8 3e
       -0.03365807 -0.13195023 -0.11592507 0.4236881
000360 9b 30 c1 3c e0 5e 9a 3e 33 2f b4 bb 04 75 41 3f
       0.023582747 0.3015051 -0.0054987906 0.75569177
000370 7d d4 53 3e 25 88 05 be cf ca be 3d df 12 4a 3d
       0.20686527 -0.13040216 0.093160264 0.049334403
000380 15 33 18 be c7 be e6 3d aa fd b1 bd 7a 92 39 3e
       -0.14863236 0.11266857 -0.08690961 0.18122283
000390 98 fe 1b bb 33 e5 7f 3f 1a de f5 bc 42 32 13 3d
       -0.0023802873 0.99959105 -0.030013133 0.0359366
0003a0 d5 78 7f be a6 80 19 3e 46 82 79 3d 04 2a 89 3e
       -0.24948438 0.14990482 0.060915254 0.26789868
0003b0 c2 3c 47 be 32 0b 8c 3e c8 d9 23 3e ea 14 ab be
       -0.19456771 0.2735229 0.16001046 -0.33414394
0003c0 ba 58 d1 be 30 87 6c bc eb 44 3a be 06 7b 59 be
       -0.40888005 -0.014436528 -0.18190353 -0.21238336
0003d0 f1 db 6f be c5 8c e7 bd 4b 35 ee bd 32 1f 73 be
       -0.23423745 -0.113061465 -0.116312586 -0.23742369
0003e0 cb 9b 90 bd 82 55 37 be 8f 98 4c be c0 f0 e8 bc
       -0.07060965 -0.17903712 -0.19980071 -0.028435111
0003f0 2a 77 14 3d 6a 4e df bd 32 48 02 3e e9 0f 67 be
       0.036246456 -0.10903628 0.12722853 -0.22564663

bias f4 [32]
000000 c5 e3 61 3e 63 88 24 3e 0f 16 e2 bd 5f 30 5e bd
       0.22059543 0.16067652 -0.110393636 -0.05424535
000010 70 93 49 3e fa ca 37 be 72 ac 65 be a5 40 4a be
       0.19685149 -0.17948523 -0.22429064 -0.19751222
000020 f8 a5 16 3e da fb 33 be cf e1 8f bd b8 72 0a 3e
       0.1471175 -0.17576542 -0.070254914 0.13520324
000030 59 b8 13 3e cb be dc 3c e2 3c 24 3e 49 09 18 3e
       0.14425792 0.026946446 0.1603885 0.14847292
000040 20 a3 0c be 2e f2 2c 3e ad 7d 10 3e 3c 28 00 3e
       -0.13734102 0.16889259 0.14110442 0.12515348
000050 25 ae c7 bd 97 1d f8 bd 55 28 4f be 73 db fa bd
       -0.09750012 -0.12115019 -0.20230229 -0.12248888
000060 19 18 71 3e c1 d6 39 3e b6 8c f8 bd 38 d6 d7 bd
       0.23544349 0.18148328 -0.121362135 -0.10538906
000070 21 88 09 3e f1 5b 28 3e b3 98 6a 3e 8b c7 1f be
       0.13430835 0.16441323 0.22909813 -0.15603463

weight_ih_l0 f4 [48, 32]
000000 36 70 da bd 03 0d 1c bf 82 3b a6 3f 6a 8d 92 3e
       -0.10665934 -0.60957354 1.298691 0.28623515
000010 d6 cc c2 3e f5 32 1a 3f 0e ef 8d 3d cf 0d 59 bd
       0.38046902 0.60234004 0.06930362 -0.052991685
000020 e5 d0 85 bd 5d c2 3e 3e e1 c0 cb bd 47 84 ae 3d
       -0.06533984 0.18628831 -0.09948898 0.08521324
000030 ed 0e 2b bf b0 c9 9f 3e 11 06 88 bf f5 91 02 3e
       -0.6681965 0.31208563 -1.0626851 0.1275099
000040 9f c2 82 3f e2 02 03 3e fc dd 13 be 34 51 84 bf
       1.0215644 0.12794068 -0.14440149 -1.0337281
000050 fa fb 5f 3f 99 e3 62 3d c1 6d b9 3d 22 08 a0 3f
       0.8749386 0.055392835 0.09054137 1.2502482
000060 ad 63 cd 3d d6 1f 59 be 15 19 b2 bc b0 53 66 bd
       0.10028777 -0.2120355 -0.021740476 -0.056232154
000070 a8 34 10 bf db 4d 00 be 02 f5 74 3e ce dd 1e 3f
       -0.5633035 -0.125297 0.23921588 0.620572
000080 6e 0d b5 3e ab f1 69 3d 05 89 31 bf d0 63 18 3e
       0.3536181 0.05711524 -0.693497 0.14881825
000090 96 e5 d2 3e b0 a6 de 3d 2e 92 e8 3e f6 22 b3 bd
       0.41190785 0.10871637 0.45424026 -0.08746903
0000a0 19 9e f8 3d be 33 fe bc 56 e6 17 be fb 80 9b bd
       0.1213953 -0.031030532 -0.1483396 -0.075929604
0000b0 e1 99 44 3f a2 3b 7c 3d dc 75 3d 3f 88 7e 35 3e
       0.767973 0.061580308 0.74007964 0.17724049
0000c0 b3 8a 5c bf d3 59 9c 3e 21 8e d4 be 9b 97 8b 3f
       -0.8614914 0.3053728 -0.41514686 1.0905641
0000d0 b9 88 88 bf 49 d2 ee be 10 89 71 3d 32 47 43 bf
       -1.0666724 -0.4664481 0.058968604 -0.7628051
0000e0 4a 0e 7d 3d c6 70 bc be 4c 2e 67 3d dc 85 4a 3e
       0.061781205 -0.3680479 0.056440637 0.19777626
0000f0 58 e0 31 3e 47 ab 83 3c 96 f3 c3 be 4c 16 ed 3d
       0.17370737 0.016072882 -0.3827178 0.115765184
000100 01 b4 13 be 77 ff 0b bd 59 ea 91 bf bf 38 2e be
       -0.14424135 -0.034179177 -1.1399642 -0.17013834
000110 f1 d5 26 3f 94 8a d1 be 00 ef 7e 3c b4 13 67 be
       0.651702 -0.4092604 0.015559912 -0.2256611
000120 33 b5 6e bd e9 cf 05 bf 70 8b 73 bd aa 9e 9f be
       -0.058278274 -0.5227037 -0.05945915 -0.3117574
000130 c9 d1 98 3e 2a b3 38 3d e9 ef 96 3f 9a 90 18 3e
       0.29847553 0.04509274 1.1791965 0.14898911
000140 70 fe 88 bf 0e 02 c7 bc 2c 2c a3 bc 34 52 92 3f
       -1.0702648 -0.024292972 -0.019918524 1.1431336
000150 80 56 b4 be b3 5d e5 be 8d de a6 be 57 28 1a bf
       -0.35222244 -0.4479805 -0.32591668 -0.60217804
000160 da 0b 95 3e 54 a3 21 3f 63 71 25 3e 5f 08 21 bd
       0.29110605 0.63139844 0.16156535 -0.039314624
000170 ff ab a6 be 15 bb 57 3e 02 a8 7c be 4a ba 0c bf
       -0.32553098 0.2106746 -0.24673465 -0.54971755
000180 4f 24 3c 3e a3 5a 21 3e 55 42 5e 3e 31 44 1b 3f
       0.18373226 0.15757231 0.21704991 0.60650927
000190 20 09 1f bf 0a 6d d2 3e e3 de db bd 79 4e 21 be
       -0.621233 0.41098815 -0.10735872 -0.15752591
0001a0 07 cf 0f be 0c d4 18 3e db fe 50 3e 83 b1 d4 3e
       -0.14043818 0.1492464 0.2040972 0.4154168
0001b0 d6 0d 10 bd 44 b4 6d bf 9c 8f 53 be 6e 27 03 bd
       -0.035169445 -0.9285319 -0.20660251 -0.032020025
0001c0 52 b0 21 3d 40 49 39 be 18 2c 8d be 6f 04 7b 3d
       0.039474793 -0.18094349 -0.27572703 0.061283525
0001d0 b7 3a 00 3e 08 12 2e 3d 18 cf 7e 3f f7 07 f1 be
       0.12522398 0.042497665 0.9953475 -0.4707639
0001e0 fb 2d 0f 3e 1f 67 97 3d b8 34 4e be ec 16 08 bc
       0.13982384 0.07392716 -0.20137298 -0.008306246
0001f0 c2 fe e9 3d 78 6c 37 3e bc 07 27 3e a4 a2 81 3e
       0.11425544 0.17912471 0.16311544 0.25319397
000200 74 f3 f1 3d 1c 01 d1 be 5e 74 05 3f 5e d7 b7 bd
       0.11814013 -0.4082116 0.5213069 -0.08976625
000210 e1 58 86 3e 86 dc 21 3e ff 0e 8f 3d c5 c6 ca 3d
       0.26239684 0.1580678 0.06985282 0.099011935
000220 b1 25 7e 3d b4 91 98 3e dd 61 28 3e e0 c2 8b be
       0.062047664 0.29798663 0.16443582 -0.27297115
000230 4e 3e 24 3d f6 83 3e 3e 97 4d 52 bf 49 5e 84 bd
       0.04009848 0.18605027 -0.8214964 -0.06463296
000240 34 8a 3b 3f f6 13 d3 bd 74 d0 30 3e 18 4c 55 bf
       0.73257756 -0.103065416 0.17267019 -0.83319235
000250 8c 0f a1 3c b9 5e b0 bd a3 9d ba 3d ab ed 14 3f
       0.019660734 -0.08611817 0.09112098 0.5817515
000260 9f 06 52 3d fc 63 82 be d9 2b 89 3e f8 3f b9 3b
       0.051275846 -0.25466907 0.26791266 0.0056533776
000270 f6 43 e3 be 73 da f0 3a c0 59 a8 be e2 06 00 be
       -0.44387788 0.001837565 -0.32880974 -0.12502626
000280 21 84 41 be 98 98 f2 bd 98 48 c6 be 0c a5 85 3d
       -0.1889806 -0.11845511 -0.3872726 0.06525621
000290 2b 35 85 3f e4 d0 d6 be cf c5 07 3e 84 8b c6 bd
       1.040685 -0.41956246 0.13259052 -0.09694579
0002a0 5b d0 08 be ab 1d b5 bd 95 16 22 bf 18 c8 b8 be
       -0.13360731 -0.08843549 -0.6331571 -0.3609016
0002b0 78 86 03 3c ea d7 a3 3f 6d 01 3c 3e 40 2d da 3d
       0.008027665 1.2800267 0.18359919 0.10653162
0002c0 a1 3d e9 be 69 60 0c 3f 66 c7 13 3e 8a fd 50 3d
       -0.45554832 0.5483461 0.14431533 0.051023044
0002d0 95 ef 1a bf fd 42 60 bf 84 aa 54 bf f1 0c dc 3e
       -0.60521823 -0.87602216 -0.83072686 0.42978624
0002e0 c3 57 49 3c 7c 04 3c 3c f2 32 ea 3d 24 ce d1 be
       0.01228899 0.0114756785 0.11435498 -0.40977585
0002f0 32 80 cf be cc 91 8c be 30 8e c5 be 59 b9 6d bd
       -0.40527493 -0.27454984 -0.38585043 -0.05803809
000300 33 11 94 be 4b 00 5f be 0a 5b 41 3f 39 0d c9 3e
       -0.28919372 -0.21777456 0.7552954 0.392679
000310 86 be 04 3e 73 e4 22 3e c8 80 ed 3d a8 83 47 be
       0.12963304 0.15907459 0.11596829 -0.19483817
000320 c9 cd 49 be 47 9b 07 3f 71 e7 ec 3d 75 5b b1 3d
       -0.19707407 0.5297131 0.115675814 0.08660022
000330 6c 9d 6b bf fd e1 c5 3e de c0 94 bf aa 15 4d 3e
       -0.9203708 0.38648978 -1.1621358 0.20027795
000340 d4 90 96 3f 7f 07 e6 3c 58 ec 05 3c 4a c2 81 bf
       1.1762948 0.028079746 0.0081740245 -1.0137417
000350 f4 65 2a 3f cf 6d 24 bd 1d fb 00 3e c2 d2 b9 3f
       0.6656182 -0.040143784 0.12595792 1.4517443
000360 cb a4 b1 3c 3c a8 f7 bd 12 0d 87 3e 7e ee fd be
       0.021685025 -0.12092635 0.2637716 -0.49596018
000370 11 40 cb be d0 32 d0 be 79 b7 f1 bd 42 66 a7 3e
       -0.39697316 -0.40663767 -0.11802573 0.32695204
000380 3d 7b b8 be 3e a7 0f bf 8b ed 9b 3e 54 0f d0 3e
       -0.36031523 -0.56114566 0.30454668 0.40636694
000390 45 08 a0 3e 7c b7 1c 3f f5 66 6a 3f fb 2d 6d 3e
       0.3125631 0.61217475 0.9156335 0.23162071
0003a0 58 33 e9 be 58 1f 01 3f 67 c2 65 bf 33 d7 24 be
       -0.45546985 0.5043845 -0.8974976 -0.16097717
0003b0 f2 6d 05 3f 17 8a 97 3d 1b 94 34 be 2e 0f ca 3e
       0.5212089 0.073993854 -0.17634623 0.39464706
0003c0 09 3b 98 bd d0 b3 e2 3e 0a 98 3c bf b3 62 33 3f
       -0.07433135 0.4427781 -0.73669493 0.7007248
0003d0 01 78 d9 be 81 9a b4 bd d3 be 58 3e b4 55 8b be
       -0.42474368 -0.08818532 0.21166544 -0.27213824
0003e0 ec 1b 2b 3e 5b 96 26 be 1d e9 98 3e 10 2b 22 3d
       0.1670987 -0.16268294 0.2986535 0.03959185
0003f0 44 a8 ec bd 6d f1 42 be 07 6e ed be 7f 3c 54 3f
       -0.115555316 -0.19037409 -0.46373007 0.8290481

weight_hh_l0 f4 [48, 16]
000000 ea cc ae bd 9f 87 c0 3b c5 f8 2d be 71 a1 ad 3f
       -0.08535178 0.0058755423 -0.1698943 1.3564893
000010 2b df 91 3f 52 8e 2b 3e ab 62 26 3e 6f 6a 11 bf
       1.139623 0.1675351 0.16248576 -0.5680303
000020 7e 62 95 bf c2 cd 4f 3f 9e 5e d6 3e b7 ae 19 3f
       -1.1670682 0.81173337 0.41869062 0.6003222
000030 cf 2e 3f bf 25 b4 30 bf 4d b7 1e bf 26 5f a0 3d
       -0.746808 -0.6902488 -0.61998445 0.07830648
000040 3e 56 20 bf 43 63 00 bf e4 bf 00 3f 88 65 aa 3e
       -0.62631595 -0.5015146 0.502928 0.33280587
000050 e5 bf 52 3f 7c a2 d6 3e c4 d4 07 bf c4 05 91 3d
       0.8232406 0.4192084 -0.5305903 0.07081178
000060 34 b6 03 bf 75 22 70 3f b9 27 6a 3f be 7a 4e 3f
       -0.51449895 0.9380258 0.9146686 0.8065604
000070 58 7c 82 bc 95 6b 89 bf 12 9f 63 bf ae 22 82 3f
       -0.015928432 -1.0735956 -0.889146 1.0166833
000080 33 b2 15 be dd 93 5b 3e 1f 3b 96 3e bd 10 61 3f
       -0.14618759 0.21443124 0.2934198 0.87916166
000090 39 de 29 3f e4 b5 3e 3f 68 a4 00 3e 1b 57 0c bf
       0.6635471 0.74496293 0.12562716 -0.5482041
0000a0 ab 12 95 bf 71 99 6e 3f 7c 72 d3 3e 99 d7 02 3f
       -1.1646322 0.93202883 0.41298282 0.51110226
0000b0 8f 6c 58 bf e9 af 05 bf fe 41 51 be bb a7 91 3e
       -0.8454065 -0.5222154 -0.2043533 0.2844828
0000c0 4d 88 fc 3e dd a6 32 3f 75 5a a2 be c7 cd c0 3d
       0.4932274 0.69785863 -0.31709638 0.09414249
0000d0 a1 73 a3 bb 16 19 c0 bd 40 5c 5b 3f 4d 77 1c bf
       -0.0049881493 -0.09379785 0.8568764 -0.6111954
0000e0 82 cc 4c 3e ac 8b ad bd 0e ce 88 be 96 d4 81 be
       0.19999889 -0.08473906 -0.26719707 -0.25357503
0000f0 16 b9 1c bf ac 4d c0 3d d9 05 bd 3d eb a7 86 bd
       -0.6121992 0.09389815 0.09229631 -0.065749966
000100 a2 b1 36 be d9 2e 2f 3f 32 50 3f bf 6d 49 37 40
       -0.17841199 0.6843086 -0.74731743 2.8638566
000110 70 ab 43 3f 49 aa bc 3f a0 cc 4f 3f 0e b3 9e bf
       0.7643347 1.4739467 0.8117161 -1.2398393
000120 c6 e6 be bf 85 c2 2f 3f 88 b8 b2 3e 28 73 de 3d
       -1.4914176 0.6865619 0.3490641 0.10861808
000130 ea 23 82 bf 46 cd 30 bf 17 3e 27 3d 01 f2 ad be
       -1.016721 -0.6906322 0.040830698 -0.33973697
000140 15 20 1e 3f 4f c6 6b 3f 41 30 5b bf 02 b5 0b 40
       0.61767703 0.9209947 -0.85620505 2.1829228
000150 e2 18 d3 3d 74 78 9c 3f b1 14 95 3f 96 a1 b1 bf
       0.103074804 1.2224259 1.164694 -1.3877437
000160 b9 18 eb bf c6 98 b1 3e 98 5c 3a be 14 c1 28 be
       -1.836692 0.3468687 -0.18199384 -0.16479903
000170 ae 2f b1 bf 7d 9d ee be fa 90 07 3f 35 e7 3f bf
       -1.3842676 -0.4660453 0.5295559 -0.7496217
000180 83 5c 4e be 3a f9 83 3e c4 65 2b bd 4c 75 a7 3f
       -0.20152478 0.25776082 -0.0418451 1.3082671
000190 8d 63 49 3f 80 82 ba bb a1 17 0d 3f 81 43 e9 be
       0.7866753 -0.0056918263 0.5511418 -0.45559314
0001a0 66 71 92 bf 90 51 3f 3f b9 c4 8e 3e f1 81 2e 3f
       -1.1440856 0.7473383 0.27884462 0.68167025
0001b0 da 56 1c bf 54 63 e8 be 52 08 88 be 21 a7 af 3e
       -0.61070025 -0.4538828 -0.26568848 0.34307197
0001c0 5c cf 69 bf 72 98 11 bf 00 0a 2e 3f d5 1d 6a 3e
       -0.9133203 -0.5687324 0.6798401 0.22862943
0001d0 ef 46 2c 3f f0 03 86 3e 92 4b eb be da c8 63 3e
       0.67295736 0.2617488 -0.45956093 0.22244588
0001e0 39 76 67 bf fd a5 61 3f f6 bf 84 3f a9 0d a2 3f
       -0.9041477 0.88143903 1.0371082 1.2660419
0001f0 eb 72 a1 be f3 f2 94 bf 19 21 92 bf 9e e5 9e 3f
       -0.31532988 -1.1636642 -1.1416351 1.2413824
000200 2c 56 47 3f 9e 6c 86 3f f4 3f b2 bf f8 44 ae 3f
       0.7786586 1.0501897 -1.3925767 1.3614798
000210 5f 83 32 bf 98 e4 94 3f 4d 96 b3 3f 94 fd c4 bf
       -0.69731706 1.1632261 1.4030243 -1.5389886
000220 ee b3 64 bf e9 d5 b9 bd a2 a1 a8 be 85 2b 19 bf
       -0.8933705 -0.09074003 -0.32935816 -0.5983203
000230 24 d3 e0 bf 63 ec 38 3e 93 36 2e 3f c7 d5 81 bf
       -1.7564435 0.18058924 0.68052024 -1.0143365
000240 0a 54 78 3e 97 e2 a6 3e ef 18 0e bf 1b 98 06 40
       0.24250808 0.3259475 -0.55506796 2.1030338
000250 a4 91 c3 3e f6 30 b8 3f 6f 94 87 3f 6b 73 a0 bf
       0.38197052 1.4389942 1.0592173 -1.2535223
000260 0a 8b 97 bf 40 54 20 3f 2f 0a a2 bd ba fa 4a be
       -1.1839306 0.62628555 -0.079120986 -0.19822207
000270 23 22 a5 bf e7 5f bc be e5 0a a6 bd 83 da 1e bd
       -1.2901043 -0.36791918 -0.08107547 -0.038782608
000280 04 c5 07 bf 09 fb 21 3e 1f 4c d4 3e 37 48 f6 3e
       -0.53034997 0.15818419 0.41464326 0.4810197
000290 d7 fb 50 3f 3e e2 43 3f 7d d6 85 be a8 5d 4c bd
       0.8163428 0.76517093 -0.26140204 -0.049894005
0002a0 1b 1a 6b bf d8 20 46 3f 12 6f 50 3f ee 06 1e 3f
       -0.9183671 0.77393866 0.8141948 0.61729324
0002b0 57 50 b6 be 12 ab 3a bf d4 b2 d3 be 32 55 0f 3f
       -0.3560817 -0.7291728 -0.41347373 0.5598937
0002c0 48 e8 ae 3e c0 fb 20 3f e3 9d 22 bf b7 ed eb 3f
       0.34161592 0.6288414 -0.63522166 1.843192
0002d0 4c 1d 07 3f e2 04 36 3f 39 3a 4e 3f c3 88 75 bf
       0.5277908 0.711012 0.8055759 -0.95911807
0002e0 84 e4 a8 bf 0a ed 1e 3f 5d 9d b1 3d 80 32 bc bd
       -1.3194737 0.6208044 0.08672593 -0.091893196
0002f0 9d 52 98 bf 83 9d a8 be 77 d6 92 be ad 70 28 3d
       -1.1900212 -0.32932672 -0.2867925 0.04112308
000300 a6 2c 8c be 32 e7 e8 3e f2 20 1a be 6c b8 a8 3f
       -0.27377814 0.45488888 -0.1505163 1.3181281
000310 b9 10 9a 3f 60 de 09 3d 00 ab 1e 3f 6b de a1 be
       1.2036353 0.03365934 0.61979675 -0.31615004
000320 83 b3 9e bf 4c 2c 8c 3f 45 bc 17 3f c0 1f 4e 3f
       -1.2398533 1.0951018 0.5927165 0.80517197
000330 20 37 30 bf 54 33 8a bf 2f 70 14 bf 02 3b 90 3e
       -0.68834114 -1.0796914 -0.5798368 0.2817002
000340 34 49 f2 bd e6 70 2b 3f 27 12 56 bf f8 8e d6 3f
       -0.11830369 0.66969144 -0.8362145 1.6762381
000350 78 5b 0a 3f ee 89 ad 3f 07 2e 87 3f 77 6e b5 bf
       0.5404582 1.3557718 1.0560921 -1.4174336
000360 ac 68 b8 bf d4 75 3b 3f b8 e7 1c be 2e 25 e5 bd
       -1.4406943 0.73226666 -0.15322769 -0.11188732
000370 ce d3 99 bf ba ce 61 be 37 0e 38 3c 28 12 ec bd
       -1.2017763 -0.22051516 0.011233858 -0.115269005
000380 67 5b dc 3d f0 47 e0 3d 46 a3 86 be 3e 0a ab 3f
       0.10759621 0.10951221 -0.26296443 1.3362501
000390 ff aa 4e 3f e3 62 ad 3d a7 4d 1e 3f 46 7d ed be
       0.8072967 0.08466127 0.6183724 -0.4638464
0003a0 7d 69 91 bf e9 29 81 3f fc 5d c0 3e ce af 9f 3e
       -1.1360317 1.0090915 0.37571704 0.31188816
0003b0 07 f6 0d bf 75 88 63 bf f7 52 f0 be bd db aa 3b
       -0.5545353 -0.8888009 -0.46938297 0.005214183
0003c0 07 76 09 3e c7 93 d7 3e 8f 4e 13 bf 73 47 ed 3f
       0.1342393 0.42104933 -0.57541746 1.853743
0003d0 b3 b8 21 3f 1d 90 58 3f 41 b0 2d 3f 4c 9c 61 bf
       0.63172454 0.845949 0.6784707 -0.88129115
0003e0 f2 77 c4 bf 1b f0 4d 3f b1 d6 51 3e 7f 79 35 3c
       -1.5349104 0.80444497 0.20492055 0.01107633
0003f0 3b 4e 78 bf 5a 62 03 bf aa 83 89 be 58 34 97 be
       -0.9699437 -0.5132195 -0.26858264 -0.29532123

bias_ih_l0 f4 [48]
000000 a0 73 82 3d a1 60 88 be c3 09 e8 be 1b a8 25 3e
       0.0636971 -0.26636222 -0.45319948 0.16177408
000010 18 bd 40 3d 54 f2 95 3d e7 6a a9 3c 25 b0 0d bf
       0.047055334 0.07321611 0.020680858 -0.553469
000020 60 40 36 3e 2f f5 f1 3d a1 26 f9 bc df 95 82 3e
       0.17797995 0.11814343 -0.030413928 0.25504968
000030 c1 04 89 be 94 41 1c 3e bf ed 74 3e 03 e3 9b bd
       -0.2676144 0.15259391 0.23918818 -0.076116584
000040 0a b9 aa 3e 43 65 b3 3e 57 64 b6 3e d4 ea 0f bf
       0.333443 0.35038194 0.35623428 -0.56217694
000050 c0 48 38 3f 52 75 37 bf eb 7e b2 3e 0e ab aa 3e
       0.7198601 -0.7166339 0.34862456 0.3333363
000060 72 4c 56 3e 40 e7 dc 3e da e2 83 3e 7f 13 b7 3e
       0.20927599 0.4314518 0.25759012 0.35757062
000070 be 8e 34 3f 08 80 07 3f 46 3e e8 3e 0d 47 57 3e
       0.7053031 0.52929735 0.4536001 0.21023197
000080 4a 97 0b 3e 1f d9 2d bd 9d 67 37 3e 42 b1 b2 3e
       0.13631931 -0.04244339 0.17910619 0.34900862
000090 eb 7b 51 3e 57 c4 01 be 61 35 fb 3b 37 20 60 3e
       0.20457427 -0.12672554 0.0076662754 0.21887289
0000a0 2c 9e c8 be ee d5 8c 3e b7 16 72 3e 2e 2f a8 3d
       -0.39183176 0.27506965 0.23641478 0.08212124
0000b0 01 52 8e 3d fb 34 66 be ec 0a ee bd 95 f0 80 bb
       0.06949235 -0.22481148 -0.11623177 -0.0039349296

bias_hh_l0 f4 [48]
000000 61 90 b0 be 6d a1 5e be 8f b4 a5 be 9a 1b cb 3c
       -0.34485152 -0.21741267 -0.32364318 0.024793435
000010 6f 50 20 be 28 09 4e bd 57 c1 0c be 3d ec 17 bf
       -0.15655683 -0.0503017 -0.13745628 -0.59344846
000020 44 80 ef 3e db 5e f3 bc eb 75 a8 bd 29 6f 66 3e
       0.46777546 -0.029708317 -0.08225616 0.22503342
000030 ee 03 98 be e7 4f cc 3e 1b 40 d3 bb 8a 0a 60 bd
       -0.29690498 0.3990471 -0.006446851 -0.05469755
000040 b1 74 f4 3e e6 77 c6 3e 85 70 46 3f 92 c3 f8 be
       0.47745278 0.3876335 0.7751544 -0.48586708
000050 13 b8 3f 3f 5b b3 e4 be b4 e9 38 3f c8 fc 0c 3f
       0.7489025 -0.44668087 0.722316 0.55073214
000060 bc 42 fe 3e 09 bc 07 3f 58 81 01 3f 5a f6 bf 3e
       0.4966029 0.53021294 0.5058799 0.3749264
000070 69 e8 65 3f ea 70 bd 3e 7e 77 a2 3e 47 68 f3 3e
       0.89807755 0.3700021 0.3173179 0.47540495
000080 22 9e 37 be 08 20 a2 3d 02 d2 1a bc 01 46 4d bd
       -0.17931417 0.07916266 -0.009449484 -0.05011559
000090 fb cd 44 3e 10 4d 47 be c5 db a4 be c6 16 1c bb
       0.192192 -0.19462991 -0.3219892 -0.0023817285
0000a0 08 fa 29 be 2c bb f4 3d b4 75 64 bd 47 55 b5 3e
       -0.16599286 0.11949763 -0.055776313 0.35416624
0000b0 9f 5f 26 3e 88 78 87 be ba 0b 9e be 5d 96 a0 3e
       0.16247414 -0.26459146 -0.30868322 0.31364718

weight f4 [2, 16]
000000 c0 5f db bb a0 63 bd 3d f0 27 ab 3c 82 68 33 be
       -0.006694764 0.092475176 0.020893067 -0.17520335
000010 f8 29 8f 3d e4 de 4c be b0 5b a7 bd 18 b8 3c 3d
       0.06990427 -0.20006901 -0.08171785 0.046074003
000020 20 7b 05 bd 00 95 7f bd 80 54 fe bc be 5e 08 3e
       -0.032588124 -0.062397957 -0.031046152 0.13317391
000030 be fe 39 be c4 f4 5c be 4a dd 49 be 2e 08 56 3e
       -0.18163583 -0.21577746 -0.19713321 0.20901558
000040 93 db 33 bf 97 52 e7 be b2 b6 20 3e 29 81 e9 3a
       -0.7025692 -0.451802 0.15694693 0.0017814982
000050 75 5a dd 3d 9d f0 9a be 9b f7 c0 be ff a9 c2 3e
       0.10808269 -0.30261698 -0.37688908 0.38020322
000060 47 58 05 c0 17 76 f5 3e 01 d9 05 3f 84 1a 29 3f
       -2.083513 0.47941658 0.52284247 0.66056085
000070 1a a6 08 3d a6 02 ea be a4 bb 40 bf fd 60 43 3f
       0.03336153 -0.45705146 -0.75286317 0.7631987

bias f4 [2]
000000 30 b1 8a bc 58 70 9c 3e
       -0.016930193 0.3055446
